saved_models/genius_model/biases2.npy (npy, 640 bytes, 1 tensors)

array f8 [1, 64]
-0.02004375920238584 -0.07823869860011447 -0.03484506373987899 0.06529022558232069 -0.06289171733496193 -0.007891638153548014 -0.01537476452160189 0.028214651476084585
-0.08024514710963677 0.022205508524001927 -0.08736301472852506 0.11383523579596913 -0.002039259227564433 -0.011436311516835213 -0.04878166288661794 0.03336650734532131
-0.051952318156300546 -0.031298725957220754 -0.23441268533020684 -0.01470265458740571 -0.08683612814314368 -0.04633618082073186 -0.10416360484449319 -0.025262338761691053
-0.01897799833354013 -0.1383183051373784 -0.038339831392381306 -0.03680866210136925 0.057799142187193286 0.08016030711134224 -0.07944219037442482 0.057457995638257736
0.08039743714761623 0.013194703900811983 0.054643639166368135 0.006800098247712324 -0.19255640314664196 -0.06876804103543842 0.002433253701346042 -0.004933624207312639
-0.003089770784866202 -0.0423265737476348 -0.16218694764723302 -0.030235644968476517 -0.01422563551243292 0.007322323092486793 -0.04786744281361467 0.061555521016024795
-0.09664542207066487 -0.06628439785771043 0.004728846565856704 -0.06908195569272461 -0.027408191265535644 -0.12634560151434793 0.051491133743135034 -0.06418788697656186
-0.07563707639992673 -0.09086536047085482 0.028934047627888752 -0.028423416074089644 -0.013780343980260052 -0.007104817617863095 0.06309066094000251 -0.022347352052558653
00000000: 3476 0de9 5986 94bf 41e3 c48b 7307 b4bf
00000010: 862f 6152 36d7 a1bf 31e1 9f37 dcb6 b03f
00000020: 9297 24ed ab19 b0bf d036 40be 7d29 80bf
00000030: b28d 6ef6 cd7c 8fbf bd68 6e35 4de4 9c3f
00000040: 2da4 7f2a f28a b4bf dd46 9b73 0abd 963f
00000050: 4a94 232b 6c5d b6bf 724a e056 4e24 bd3f
00000060: 0d36 18f6 a2b4 60bf fd07 9dbf eb6b 87bf
00000070: b72b 7cfd e8f9 a8bf 7fe8 a833 6a15 a13f
00000080: 938a dd86 7e99 aabf d513 c9f8 6206 a0bf
00000090: 2761 a120 3c01 cebf bc36 f0e4 6c1c 8ebf
000000a0: e86e 7c7a e43a b6bf 7e40 7e3a 60b9 a7bf
000000b0: b295 3d4c 77aa babf c42e 35db 5ede 99bf
000000c0: 4e90 bee8 f76e 93bf 7f68 800a 6ab4 c1bf
000000d0: 03ca ed43 47a1 a3bf a2aa debf 95d8 a2bf
000000e0: 4098 dc62 d997 ad3f 1704 7bc9 6285 b43f
000000f0: baac 94c9 5256 b4bf 24ef 5168 226b ad3f
00000100: b531 3b2b ed94 b43f 7008 e02d d305 8b3f
00000110: ecd5 4e46 40fa ab3f fc0f 5679 6bda 7b3f
00000120: 5e3a 132f b0a5 c8bf 77d7 4147 c89a b1bf
00000130: d4af 3e22 e7ee 633f 4247 f0a9 4735 74bf
00000140: 58ef 230f b84f 69bf bde2 fe23 d4ab a5bf
00000150: a6d0 fdb9 8ac2 c4bf 5d96 40c9 17f6 9ebf
00000160: b262 537a 5422 8dbf e659 6823 03fe 7d3f
00000170: b2f1 dada 1482 a8bf c0db 4d8b 3484 af3f
00000180: ea03 1a1f c1bd b8bf e6ae 08a9 03f8 b0bf
00000190: 800c 9215 8e5e 733f 3ba8 71e4 5aaf b1bf
000001a0: 670f 8394 e410 9cbf 74b0 3fb9 172c c0bf
000001b0: 6ae4 ebbe 0b5d aa3f f819 5d0b 9e6e b0bf
000001c0: 7cb3 8091 f35c b3bf 39c3 8fc7 f342 b7bf
000001d0: fef3 3511 e3a0 9d3f ac4e ea29 071b 9dbf
000001e0: 3764 c875 de38 8cbf 9217 01f5 f019 7dbf
000001f0: 1a9b 6ba5 b526 b03f 1c2b df68 39e2 96bf
