saved_models/genius_model/biases1.npy (npy, 640 bytes, 1 tensors)

array f8 [1, 64]
0	0x3f8e0423f5f341af	0.014656334822945675
1	0x3fa6b6f1a7604762	0.04436450164952423
2	0x3fcc63df3cbb0252	0.22179785218578957
3	0xbfa212c007a315ca	-0.035299302036530714
4	0x3fa82a97a893f3ba	0.047199954346047915
5	0x3fc42340f0d5df75	0.1573258567766477
6	0x3fa65add1fdd9900	0.043661985530706104
7	0xbf869f6a45ad150d	-0.011046247722001934
8	0x3fc64b49fc01fc91	0.1741726379877702
9	0xbfc7c5e3549c8152	-0.18572656279958238
10	0xbfb06895ef90fdec	-0.06409585093296472
11	0xbfb6b7d9961d389e	-0.0887428275575268
12	0xbfb0eb36bd675e57	-0.06608907817951014
13	0xbfd7b7be7fe3f693	-0.3705898522310715
14	0x3fd3aa875117a1cf	0.3072832385937802
15	0xbfca29d99eeeed34	-0.20440216312804582
16	0x3f936cd2d5711948	0.018969816472485662
17	0x3fc8127f5d7f3ff2	0.18806449952398868
18	0xbfcacb51c3020b27	-0.20932981511949686
19	0xbf9a2b686caa656a	-0.025556213028357012
20	0x3fc7318ee6b0b09c	0.1811998964707343
21	0xbf9802034b6aca47	-0.023445178487870668
22	0x3f9d0e6848080991	0.028375272175261982
23	0xbf9bc1cc39e28c1e	-0.02710646727849674
24	0x3fc10387ab01c31d	0.13292022561974984
25	0xbfc91e828d0f1e96	-0.19624359023713528
26	0x3fbf4c90734f034d	0.12226202788498348
27	0xbfa6b5ecb23abc1a	-0.04435672450687651
28	0x3fa92489b41edd40	0.04910688709008548
29	0xbfc2696ee979771b	-0.14384256744499954
30	0xbfb91e6b522044f5	-0.09812041049032756
31	0xbfd9641352e31307	-0.39673312277254563
32	0x3fb55e7bacf3af52	0.08347294781168316
33	0xbfbfaa15372b7c5c	-0.12368900868340077
34	0xbfb3e145cbdf9ccf	-0.07765613772754708
35	0xbf8cd507fee4deec	-0.014078199831245773
36	0x3fa39e8a47e3fb2b	0.038318940425588664
37	0x3fb9c5e24cebc707	0.100675720004599
38	0xbfa67979e7696100	-0.04389553975915028
39	0xbfb21aaeeed20b95	-0.07071965532854414
40	0x3fba12ccf3a89ee9	0.10184937428186526
41	0x3fc8050ea7dde36b	0.18765433498972625
42	0xbfb0542274e9ee74	-0.06378379206028645
43	0x3f81ae304aaaf223	0.008633019713095774
44	0x3fbacb70d140bcf3	0.10466675862038581
45	0xbfa9db54e61798c8	-0.05050149258367892
46	0x3fb97bf5d042a218	0.09954773268203387
47	0xbfc4ad1f1d392f9a	-0.16153325011179903
48	0xbfb51632701943a2	-0.0823699496916235
49	0x3fb8f19c4b0fd9a3	0.09743668396536136
50	0x3fb4a5003c2d8cec	0.08064271420657904
51	0x3fc1f2406092476d	0.1402054282703448
52	0x3f9cbe96e2651083	0.0280707908325586
53	0xbfa0e89599a2e562	-0.03302447796290654
54	0x3fbb46eb31fc77cd	0.10655088396421704
55	0xbf85dd1cf0711b89	-0.010675645911886427
56	0xbfb4fa2a97681994	-0.08194223591281108
57	0x3fa25ebde4b4737b	0.03587907234962181
58	0x3fb6a33edbe0b67b	0.08842842929944965
59	0xbfc5089af5170dbb	-0.16432511298454053
60	0x3fa94b58a42277ef	0.0494029713020011
61	0x3fa3cd1b1d07670a	0.038674208921021316
62	0xbfa4ccb611235ed6	-0.04062432250219465
63	0x3fa9fb0ec5cfccec	0.050743543288172294
