saved_models/genius_model/weights2.npy (npy, 32896 bytes, 1 tensors)

array f8 [64, 64]
0	0xbf79bb0ae107a433	-0.006281893249686243
1	0xbfce8f2fc20b78ce	-0.23874470686764088
2	0xbf90d3abdedb95e9	-0.016432462193639728
3	0xbfb3c7101c884838	-0.07725620934095978
4	0xbfad5623461c3321	-0.057297804172867346
5	0xbf9f003082a7afb2	-0.030274160360860676
6	0x3fc86f62f20280ff	0.19089924637683706
7	0xbfa3980db4ae1f61	-0.03826945143288075
8	0xbfc78a95655c80d0	-0.18391673516544538
9	0xbfbc9f52be193a0c	-0.11180607930257497
10	0xbfc1d428ccfff904	-0.1392870903945963
11	0x3fb9b0ee8a9eb3d0	0.10035601505542435
12	0x3fa6445daff2416d	0.043490340926953454
13	0xbfbd71e1c7ff9096	-0.11501895077486987
14	0x3fc16628d061ba23	0.13593015837564434
15	0xbf8d486ccbe4e3c4	-0.014298295948366298
16	0xbfb702f4258d7e0e	-0.0898888198548706
17	0xbfb0631aca19d9c9	-0.06401221689325277
18	0xbfa9596e88a46d95	-0.04951043527600089
19	0x3fa3e1ae9b7079c5	0.0388311924691496
20	0xbfbd3090c9033bff	-0.11402230174574866
21	0xbfc04e81d2a9f29a	-0.12739584719010538
22	0xbfcf99396aa9d319	-0.246863534051635
23	0x3faf8b18f9d1a429	0.06160810517832999
24	0xbfc0f5dda74d5702	-0.13250322979973111
25	0xbfb6e77b643d50cb	-0.08946963498357545
26	0xbf7db110c001d890	-0.0072489408777213354
27	0xbfc01bfe06f447bf	-0.12585425700723182
28	0xbfcb11c5480ada64	-0.21147981660552084
29	0x3faa08720f5efa13	0.0508456844104225
30	0xbfc251bbab1b102a	-0.1431192956425787
31	0x3fc15ab4b60f63b6	0.13558062448171676
32	0x3fb2a00c7a19c109	0.072754649934499
33	0xbfc3ef98a4c14daa	-0.15574939770395463
34	0x3fafce5b7fd75bf6	0.06212125716745469
35	0x3fc6d339e88d0d14	0.17832111220386848
36	0xbfa099cf50b546e0	-0.03242347583967642
37	0x3fc065d4db19f765	0.12810764978706426
38	0xbf8d30920f6b0416	-0.014252797217865914
39	0x3fb617d68c9ed282	0.08630124028315758
40	0xbfc1a75e2ab71717	-0.13792016111090596
41	0x3f9cc8462b02671d	0.02810773503788432
42	0x3fbb6a3fef38fa62	0.10708999243159092
43	0xbfbcc14ff33e197a	-0.11232471169032535
44	0x3fb0bf8b4d151c91	0.06542273170372172
45	0x3fa2cc834fd7395e	0.0367165598832908
46	0x3fc02266208876b6	0.12604977215317142
47	0xbfb2cfc007dece4c	-0.07348251526018962
48	0x3f99971f4285102a	0.02499054759506706
49	0x3fa68498d70f9878	0.04398038506751417
50	0x3fb056d922893020	0.06382519810830489
51	0x3f8732d7b98aba7d	0.0113274434564492
52	0xbfb982b8b0999f97	-0.09965090095067662
53	0xbfb45340b1f62746	-0.07939533562435228
54	0xbfa1e9fd8b29611e	-0.03498833011389223
55	0xbf9ecf958718f4c7	-0.030088745470710856
56	0x3fc1342ca9c3784c	0.13440473832355548
57	0xbfc5fb4cc7ea3f1b	-0.17173156510806895
58	0xbfad965f22e92e75	-0.05778786946447393
59	0xbf994640596ca0e4	-0.024682050188091234
60	0xbfb92dedae07d3df	-0.09835706232827544
61	0xbf8912df8ef2fade	-0.012243029165231286
62	0xbfc33986f9f60371	-0.1501930923950812
63	0x3fc2e6a5afd25d67	0.1476637943749026
64	0x3fb7f4b51980b710	0.09357768890978613
65	0xbf73c750aa6e23a4	-0.004828753567274999
66	0x3fa0a948d2bdfb67	0.03254153797660458
67	0xbf606aee68e40542	-0.0020041138114953736
68	0xbfbbfcaa43a59c9e	-0.10932411338363798
69	0x3faa06812bcaa658	0.0508308759647888
70	0xbfbfbb25ee23dcb2	-0.12394940437285376
71	0x3f993e0ca8d51352	0.024650762371737862
72	0x3f8eab7d8f8466f9	0.0149755296156857
73	0x3fac60ab588b0bb7	0.05542502837990731
74	0xbfb409101c3b34c3	-0.07826328934898456
75	0x3fafc8e9c872af46	0.062079721182583245
76	0xbfcd4598aefa118a	-0.22868641418257268
77	0x3fa04f7d2a9e3c7b	0.031856452419668245
78	0x3fb42f104bb75a44	0.0788431343893104
79	0x3fa76c9783004af9	0.04575036501059588
80	0xbfaca50c63be307f	-0.055946719337129906
81	0xbf76f6aaf9a81e7e	-0.005606334564170033
82	0xbf95053055c516ae	-0.020527606234529365
83	0xbfadc15994be7513	-0.05811576786730135
84	0xbfc3c248392cda82	-0.15436651984937916
85	0xbf64d543b7c96b74	-0.002543098699147201
86	0xbfb26208b75af974	-0.07180838085603175
87	0x3f71ae0da769576f	0.004316380820986384
88	0xbfbb747ba4711e5d	-0.1072461391896637
89	0x3fb0a1cbd420fa95	0.06496881417204244
90	0x3fa95b514c1be3a9	0.049524822750704196
91	0x3f8393eef06b5f64	0.009559504234331669
92	0xbfa86aa1cb90485e	-0.04768853769213942
93	0x3f963b85d7de212a	0.021711436558264165
94	0xbfb01e25dffa9371	-0.06296002119286272
95	0x3f917c1fad4b6899	0.017075056984005774
96	0x3fa3549033677ada	0.03775454165928745
97	0xbf9a0fc0a12f27f1	-0.02545071586408904
98	0x3f918f71d4dd6391	0.01714876043056141
99	0x3fad1d1fce10e7bb	0.05686282530264416
100	0xbfa2855429798c23	-0.036173467696038374
101	0x3fabcb810ad03acb	0.05428698784827687
102	0xbfb0e75c0e39bfcc	-0.06603026721290844
103	0x3f8507db76efaf51	0.010268892829081418
104	0xbf8ebb4208a139a8	-0.015005603683815164
105	0xbfc45fe44cdffbdf	-0.1591763854375747
106	0x3fa7461265cc48b8	0.04545648090983562
107	0xbfb4f3ca899b7659	-0.08184495791962244
108	0x3fa89e43fc825b5d	0.048082470487478025
109	0x3f9edd2c0c20ff19	0.030140579452790115
110	0xbfc3f4a8ebca803f	-0.15590392602189415
111	0xbfa388622e9caf7b	-0.0381498987102011
112	0xbfa6bd2fcff1646c	-0.044412130483302587
113	0xbfa3f576faf290df	-0.038982122548334656
114	0xbf93ef7bf9a3514a	-0.019468247520152894
115	0x3fb8f153328272b5	0.09743232710975287
116	0xbfa8bc281bdee372	-0.04831052150934213
117	0xbfcba5febb4b3005	-0.21600326676559703
118	0x3fc4e3516ce66d5e	0.1631871968973923
119	0x3f99a2c877fb0b89	0.025035030673062706
120	0x3fc71ce1dcec087f	0.180568917152474
121	0xbfafb61e51b5023b	-0.06193632838631343
122	0xbfb80c2b4d3f3109	-0.09393568645390728
123	0x3fb71e467005fdb1	0.09030571207949013
124	0x3fb31edf923b08c2	0.07468983955462519
125	0xbfbffbae381fcd03	-0.12493409033031715
126	0x3fa8313aba1246e3	0.04725059052829097
127	0x3faf0578dbeee533	0.06058862385493526
128	0x3fd099e9671a7c36	0.25939402645775844
129	0xbfd1a0e16d32ef93	-0.275444370879762
130	0xbfb5fa580cf05db5	-0.0858511954869446
131	0xbf8d546d4e37b692	-0.014321187924873944
132	0xbfb152a9bf8daf1f	-0.06766758848760589
133	0xbfc3ce3570439040	-0.15473049146305762
134	0x3fb5b79fe7ce8de6	0.0848331395086955
135	0x3fb2f4fdfac43552	0.07405078289248948
136	0x3fb8d181913a3914	0.09694680972663533
137	0x3fcb4452a7e52ba1	0.21302254865653672
138	0xbfcc724cdee6a34a	-0.22223816760858944
139	0x3fb54860b6f3322c	0.08313564745476104
140	0xbfb8a982cced83cd	-0.0963365316688531
141	0x3fb46142bddced0e	0.07960908065154035
142	0xbfb45c822fccb4b5	-0.07953656832678997
143	0x3fc261dd102912f1	0.14361155785640947
144	0xbfb772da4abcdc5c	-0.09159626316692154
145	0xbfb35e0c7dc4169d	-0.07565382070978406
146	0xbfb5e80abf3bba12	-0.08557192963392193
147	0xbfaa2a70e2f2dba1	-0.05110504885072165
148	0x3fa868d7a736a348	0.0476748839967685
149	0x3f8da57daf5e158e	0.014475805200855143
150	0xbfb32ebedf521a15	-0.07493203117528709
151	0xbf8d4b7ee9017a94	-0.014304152951976769
152	0xbf7b7467c69e4362	-0.006702809690879304
153	0x3fa0787431cc5265	0.032168990210412564
154	0xbfb7c3069e21c30b	-0.0928196083130041
155	0x3f5628f9f26c0aab	0.0013525429619113776
156	0x3fd6141049723dfd	0.34497458622442406
157	0x3fc0b28796674a7b	0.13044829219741758
158	0xbfcbd56387a96540	-0.21744960903269295
159	0x3fbc70a1bdcff3a1	0.11109362491693144
160	0x3fbae3b3ea4ae450	0.10503696889908665
161	0xbfae9f8b94eb6bb9	-0.05981098358980525
162	0x3fc097f66eb1db5f	0.12963753132836595
163	0x3f848e1ef2b61a67	0.010036699087106983
164	0xbfcbc3cad381e1eb	-0.21691260650165076
165	0xbfcea68a343875b0	-0.23945739316779457
166	0xbfbd8bf9c328517f	-0.1154171086748814
167	0x3fcbec51cc1f3696	0.21814939944163275
168	0xbfb16978b98d407a	-0.06801561861107244
169	0xbfcfd23e6c4d7f54	-0.24860363281458808
170	0xbf8e4a9b00350be2	-0.014790736144851328
171	0x3f9f6a2f9e637b13	0.03067850498416209
172	0x3fc3340507791038	0.15002501358878972
173	0x3fbe49788e16281e	0.11830857724103835
174	0xbfa3f55bde298b8f	-0.03898131453458752
175	0x3fbbc796721164d3	0.1085142162786668
176	0x3f8ed72558908c0c	0.015058795705106952
177	0xbfd8c65cca7fcb68	-0.3871070840388513
178	0xbfb5c8dc98b60b67	-0.08509615639017697
179	0xbfbc75c86e4a1b1d	-0.11117222492803731
180	0xbfccd028fee04e0a	-0.22510254330755713
181	0xbfa22af4111ec4e0	-0.03548395833002771
182	0x3f97529d16628af1	0.02277608346106325
183	0xbfd15ce2a7c7863f	-0.27129427323061245
184	0xbfc58ee4f5d2c2c1	-0.16842329028215455
185	0xbfd3aa009107c048	-0.30725111163247165
186	0xbfc06027b19bbdc8	-0.12793441936763217
187	0xbf9694b711907bf6	-0.02205167813019312
188	0xbfb8c0ff5f2f64b8	-0.09669490884643295
189	0xbfc7f51aed65169b	-0.18716751662775696
190	0xbfac2f785e142d5f	-0.05504966877387107
191	0xbf1c874eccd27c64	-0.00010882776696739951
192	0xbfbda195b54fe8f2	-0.1157468383461582
193	0x3fb496cd06e08984	0.08042603891275318
194	0xbfbd0e1d1658d5a7	-0.11349660678464223
195	0xbfb2e2aa0de66572	-0.07377112235407937
196	0xbf8b5eb48feebfd7	-0.013364229814982238
197	0xbfc738d815d5bc70	-0.18142224374921367
198	0xbfb80cf54f4e0967	-0.09394772707131481
199	0xbfb6b03af5fe26c5	-0.08862656121905406
200	0xbfb02404a2ede73a	-0.0630495927597651
201	0x3f86edc4024425c5	0.011195689505728698
202	0x3fbde6a1c90578d8	0.11680041463612001
203	0x3f78faba42b0e04f	0.00609848745357773
204	0xbfba8ae802f11116	-0.1036820418531231
205	0xbf7d175ed6ca7d33	-0.0071023659371854285
206	0xbfbd8444cff540b8	-0.11529951169109409
207	0x3fa869b4c3167cc3	0.047681473555024854
208	0xbf378535ab6ca981	-0.00035889206212638003
209	0xbf82e85aac1db551	-0.0092322429443025
210	0xbfbcb122be18a413	-0.11207787648221794
211	0x3f7a684814e76ee3	0.006447106904001495
212	0xbfd2217188062f16	-0.28329122813805563
213	0x3fbc95c2eb694954	0.11166017768235764
214	0xbfc09318e8048e5c	-0.12948905304903036
215	0xbfaff54b03ccc754	-0.06241831227670383
216	0x3f9726a7d152d9e9	0.022608396674252438
217	0xbfbda05c1ceed2d5	-0.11572814661378612
218	0xbfcdd8a3795e6d87	-0.23317378450597578
219	0xbfb7389fdfe9251a	-0.0907077714592969
220	0xbfc505085c7adabc	-0.16421608462925075
221	0xbfb0eda774426932	-0.06612631405224503
222	0x3fc8d08b48c10c42	0.1938642602200123
223	0x3fafd2164a6acb02	0.06214971216595268
224	0x3fc1b0889f787242	0.13819988047261417
225	0x3f8d56026e9f6c56	0.014324206353128737
226	0x3fadd30b876802ce	0.05825077083500717
227	0xbfb921b1c1148aeb	-0.0981703850161854
228	0xbfc77d9a45ee336c	-0.1835205880601295
229	0x3fcad096b66c5298	0.20949062259082463
230	0x3fc291640039f411	0.14506196986249667
231	0x3fb7adcb509c7f21	0.09249563901948622
232	0x3fb5b2a3019de489	0.08475703038665662
233	0x3fb241f250aea36e	0.07131876439838233
234	0xbfbccbfaa9808961	-0.11248747480616351
235	0xbfc35ef496d576c8	-0.15133530964788222
236	0xbfb6f26580fc16c1	-0.0896361770538432
237	0x3fc71b2f5eecf3c3	0.18051712164915842
238	0x3fd4470b7e4bd2da	0.3168362363206093
239	0x3fb17be6a9940be4	0.06829682960601208
240	0xbfc7dfcf46f4ee29	-0.18651762928662777
241	0x3fc1ee3f43620841	0.14008322515661756
242	0xbf92eaccf6f07297	-0.018473818370795838
243	0xbfc8b5cb5b954282	-0.19304792377308294
244	0xbfc2e0552cb2a32b	-0.14747109110364795
245	0xbf58b335422d3a92	-0.0015075702765049753
246	0x3fc980d195889443	0.19924373437348394
247	0xbfa83d30df3c7369	-0.04734184956598748
248	0xbfc199019c46f647	-0.13748188143465453
249	0xbfb2a82b767a79df	-0.07287856714763262
250	0x3f8b25745aaf8e5c	0.013255032556066464
251	0xbfbd9773c6d0d1b4	-0.11559222797297403
252	0x3f9b75e0c8b88d40	0.02681685662367994
253	0xbf93ad0701784d94	-0.019214734520642887
254	0x3fcea3704644e9ec	0.2393627493964482
255	0x3fc35c9217386fdd	0.15126253255664227
