trained_model/biases1.npy (npy, 640 bytes, 1 tensors)

array f8 [1, 64]
000000 84 93 26 eb 7b 18 83 3f f8 18 ae b1 cc b1 a5 3f
       0.009324043382386689 0.042372128190480696
000010 7e ba c7 e5 c8 a6 cd 3f 4c 76 82 6a 9e 44 a7 bf
       0.23165236682639895 -0.04544539499441366
000020 4e df c3 92 3f 5c aa 3f 55 a6 bc d8 3f ce c3 3f
       0.051485048928894814 0.15473173220498163
000030 fb fb 99 e5 e3 04 a9 3f 77 81 90 99 1e f3 81 bf
       0.04886543443443966 -0.008764494954505804
000040 c7 73 f9 6d ac c2 c5 3f a6 42 00 2f 3b 23 c8 bf
       0.17000346536488406 -0.18857517046901257
000050 3a 95 c4 d3 90 0c ac bf 3d d1 f8 dc c4 24 b7 bf
       -0.054783368921827294 -0.09040480036566563
000060 fe 7c 78 5e df 41 b1 bf 5a f9 db 1b bc 99 d7 bf
       -0.06741138512051134 -0.36875822754509147
000070 19 de fa 9d 2c d2 d2 3f 46 a3 d0 b9 88 a3 ca bf
       0.2940780203602756 -0.20811566422460198
000080 71 4f 29 f8 d1 17 92 3f cf 37 cf 02 53 14 c9 3f
       0.017668991824691675 0.19593274724178264
000090 0a b8 ea a9 61 1e ca bf 66 7e cf 25 a6 20 91 bf
       -0.20405216976854518 -0.016726108606120248
0000a0 91 61 e3 68 16 92 c6 3f 81 dc 91 84 23 b1 9d bf
       0.17633323785299784 -0.02899604317323368
0000b0 2f 0e fa 73 88 85 97 3f 65 bf 75 f4 3d c1 9d bf
       0.02297032554498751 -0.029057472272540425
0000c0 ff d4 98 ea 77 d8 c0 3f b9 65 4a 81 c3 cc c9 bf
       0.1316060920231976 -0.20156139195459646
0000d0 7f 3b ed 5a 5e 9a c0 3f 52 20 f7 34 08 d0 a6 bf
       0.12971095504550686 -0.044555908647055845
0000e0 3d bf 45 e0 2f b6 a4 3f e4 b6 15 78 e3 05 c3 bf
       0.040452476622589086 -0.1486172043182058
0000f0 02 44 4f e9 d6 47 b6 bf e5 fc 1d 59 c7 21 da bf
       -0.0870336837390511 -0.4083116884502956
000100 61 ab 22 5a 4c ea b2 3f 1a c7 3b 4d 84 e9 bd bf
       0.07388760757991754 -0.11684443364699995
000110 0b ba c6 16 25 08 b4 bf 6a f9 aa 57 64 cb 9a bf
       -0.07824928098737176 -0.026166503763982808
000120 0e 61 93 49 d6 93 a4 3f 3e f1 02 c5 e2 eb b7 3f
       0.040190407258423475 0.09344308194971959
000130 f0 e9 e7 b7 f8 5a a6 bf bd be f2 d7 54 fc b0 bf
       -0.04366280789323074 -0.06635027191327487
000140 7e 27 7e f0 bc ab b7 3f 98 90 84 66 f0 3d c7 3f
       0.09246426459699639 0.1815777302337025
000150 5f cd 6c a4 0c d5 a9 bf 82 fe 95 87 cc 82 67 3f
       -0.05045356280461521 0.002869986984194218
000160 0e be ac 07 e6 65 bb 3f 67 51 79 61 7f 68 a8 bf
       0.10702359855053364 -0.047672253273648484
000170 68 ce 12 af 82 fc b9 3f eb c5 06 69 5f 75 c3 bf
       0.10150925421003765 -0.15201943042988772
000180 22 96 be 14 ad f1 b4 bf 56 8f 92 84 49 1e b7 3f
       -0.08181268459755889 0.09030589567788402
000190 61 51 60 86 b3 25 b4 3f f2 fc 32 0f 31 c9 c1 3f
       0.07870027571363415 0.13895238153597905
0001a0 ba 7a 8b 33 e6 81 99 3f ab a6 99 00 79 34 9f bf
       0.02490958871464486 -0.03047360483325316
0001b0 27 64 9c 0c e6 23 b9 3f 57 43 dd b9 cb 0f 83 bf
       0.09820401962169055 -0.009307471856716694
0001c0 02 38 2e 7b f9 f0 b0 bf c6 49 a1 ee 13 3d a5 3f
       -0.06617697961175398 0.04148161209072358
0001d0 5e f4 8e 42 6c ce b5 3f 4a 92 4e a6 6e 06 c5 bf
       0.08518101334534964 -0.1642587959332949
0001e0 50 43 9a 8c 45 31 a7 3f 70 1c 33 83 71 0a a2 3f
       0.04529778806057172 0.0352359268813921
0001f0 d2 13 a8 1e db 95 a5 bf 0d aa 85 c8 b7 b7 aa 3f
       -0.04215893506265157 0.05218290636806353
