trained_model/biases2.npy (npy, 640 bytes, 1 tensors)

array f8 [1, 64]
0	0xbf8c61fd2eb14c31	-0.013858774173206441
1	0xbfb49a493d2a7cde	-0.08047921889600526
2	0xbfa1a9c3dc05374b	-0.03449832974238961
3	0x3faff3c82eabccac	0.06240678376880146
4	0xbfafffc701031293	-0.06249830138543646
5	0xbf7904aa995463b0	-0.006107965852856376
6	0xbf88525e08853720	-0.01187585319044221
7	0x3f994bda293154e9	0.024703415645792957
8	0xbfb3e2447129155a	-0.0776713157911976
9	0x3f9c249268927d35	0.0274832607580013
10	0xbfb6ce62a5d82649	-0.08908669041570606
11	0x3fbba9845f2b606f	0.10805537532303487
12	0x3f58c47556855424	0.001511683071006028
13	0xbf87eeaa29d2c79a	-0.011685685540530778
14	0xbfa9382d249b8b75	-0.0492567164599426
15	0x3fa093de6e9ee0da	0.03237814998959872
16	0xbfa93c8b1d3d4c9e	-0.04929003459860691
17	0xbfa09a50569eca50	-0.03242732102753065
18	0xbfcdffb072f20ddc	-0.2343655167825166
19	0xbf911486cf60e283	-0.01667986527192734
20	0xbfb40f4745806a6f	-0.07835812994782441
21	0xbfa72009e24fb529	-0.04516631019201107
22	0xbfb9c36d5f833797	-0.10063823301172047
23	0xbf9c7614d8fb9f22	-0.027794194930634515
24	0xbf92492dae73027d	-0.01785727860692753
25	0xbfc0a96c3a4d40fd	-0.1301703724552751
26	0xbfa132a6d92a6d5e	-0.03358956719349736
27	0xbfa1d31b235a5be9	-0.03481373602442501
28	0x3fb149578b615e75	0.06752535965767399
29	0x3fb3b17c9702fd2f	0.07692698180016032
30	0xbfb5a08ef96e6cff	-0.08448117818482002
31	0x3fad9bfb8cbc7e39	0.057830677919124836
32	0x3fb46e62bb6ea64f	0.07980935169202862
33	0x3f8f0edb933919b9	0.015165057592764751
34	0x3fa9fc3f3ee083de	0.05075261728803303
35	0x3f863b2319a74446	0.010854982586268613
36	0xbfc8e97f23f2ce6c	-0.19462575202270516
37	0xbfb1975c24716fb8	-0.06871581926082981
38	0x3f61b3085d9c1370	0.002160564746079556
39	0xbf72f66e5f923225	-0.0046295463045109885
40	0xbf68588795e32984	-0.002971901717591043
41	0xbfa67a5035da9a81	-0.04390192658802495
42	0xbfc49bb3b72b681d	-0.16100164836717648
43	0xbf9c33de7be80793	-0.02754161483063162
44	0xbf902b92c2fef649	-0.015791218902214053
45	0x3f85feae1561f5b3	0.010739669826075415
46	0xbfaa4e62be86fcb6	-0.05137928558132769
47	0x3fb00206151314c7	0.06253088011279138
48	0xbfb84c05ee87c3fb	-0.09491002152914511
49	0xbfb13e8a5485e468	-0.06736054004240233
50	0x3f6954b539ad9848	0.0030921496922245197
51	0xbfb1d5a42d8f274e	-0.06966615783963201
52	0xbf9c5e4783f474fd	-0.027703397206200176
53	0xbfbf90afb6236427	-0.12330148884520097
54	0x3fa98e51193bb614	0.04991391594908748
55	0xbfb1be0577eda01e	-0.06930574586806457
56	0xbfb35d929fa5a776	-0.07564655683168361
57	0xbfb7c59e9a4b638e	-0.09285918490367193
58	0x3f9cec4c2c39588b	0.028245153617114254
59	0xbf9e00ccc5d17f60	-0.029299926351426975
60	0xbf8c7bcf5120f452	-0.013908023513176247
61	0xbf7fd658ca6f4c49	-0.0077727764500706365
62	0x3fb0424f61da05e6	0.06351181162792549
63	0xbf989d88cad45905	-0.024038445834855277
