trained_model/biases1.npy (npy, 640 bytes, 1 tensors)

array f8 [1, 64]
000000 f0 c5 f8 d3 d8 66 93 bf 5c 2e 32 0a 67 03 78 3f
       -0.01894701761029255 0.005862619876221577
000010 ad 4a ab 1c 0b 18 b6 3f 62 22 8b 94 cc 33 a7 bf
       0.08630437326363945 -0.04531707108759943
000020 80 f2 41 9f 7c 2d 72 bf f7 4b 6a d8 e7 e7 a4 3f
       -0.00443791084773848 0.04083179966723798
000030 56 ff 0c df 98 ba 9a 3f 45 35 7f 0d aa 6c 92 bf
       0.026102436651171367 -0.017992646287713816
000040 a4 fb 7f ec 6b 92 ad 3f d7 3b 26 82 40 b2 ba bf
       0.05775773298227385 -0.10428240945314769
000050 b0 cb 48 6c 52 5f ae bf 5d 52 4b f1 1d 7e b2 bf
       -0.05932099887686293 -0.07223689213726332
000060 8d 03 4c d0 07 6f b0 bf b4 9b d6 d4 e8 32 c8 bf
       -0.06419419131635902 -0.18905363457198876
000070 51 25 11 6b 92 d9 b6 3f 86 46 1d 57 62 62 ba bf
       0.08925738443317256 -0.10306372286620488
000080 32 a4 d2 70 a5 6c 83 bf 83 82 89 f9 9e f2 b9 3f
       -0.009484570031718407 0.10135835258689423
000090 d9 81 5c f6 e0 e1 be bf 83 c9 49 9b 1d f9 94 bf
       -0.12063413633996535 -0.020481550791779945
0000a0 c8 1f db 9f 0a 34 9e 3f c0 ac 5d 4a 06 87 a0 bf
       0.029495397574265586 -0.03228015573298526
0000b0 03 f3 ac 4c 60 0a a3 bf 8e 0b f3 88 8e ec 94 bf
       -0.0371885388944744 -0.020433642491080976
0000c0 d2 7e f8 7f cb 33 70 3f ed e1 83 a7 47 f8 b9 bf
       0.003955645486285868 -0.101444700619943
0000d0 9e 9a 14 74 1b 36 b0 3f 82 fe c9 a8 02 d5 a3 bf
       0.0633256109618778 -0.03873451528943141
0000e0 ae 4d 72 0b e3 34 7b 3f 09 75 b2 cd d9 2b b6 bf
       0.0066422337469193415 -0.08660661003019156
0000f0 9d 9a 63 9d d7 58 b2 bf ac b2 7d eb 8f c8 c3 bf
       -0.07166812508112703 -0.1545581722124515
000100 89 e8 09 dd 14 f7 93 bf d3 c3 02 ca 29 28 9e bf
       -0.01949722861397921 -0.029450085596810126
000110 c9 84 35 19 db fd ac bf 38 60 ae fa 02 58 3d 3f
       -0.056624266459729684 0.0004477507852072046
000120 a8 90 17 8e 9c 8a 30 bf 4d 66 f3 91 d8 a4 93 3f
       -0.0002524025167913815 0.019183524997833868
000130 40 83 f0 74 b8 fb a1 bf 14 a9 d2 a5 9b 21 ad bf
       -0.03512360026821293 -0.05689703368382673
000140 67 d3 60 f9 0c e1 99 3f 81 e5 6d 55 bd c4 a6 3f
       0.025272562714423154 0.04446975391233377
000150 5a 0f ed 8c 70 c1 6f bf 4d 01 0e 06 90 16 53 3f
       -0.0038764189006616325 0.001165047309967876
000160 9e 78 d1 c9 a0 02 a8 3f 8d 04 dc 15 ae ee a4 bf
       0.046895050655380674 -0.04088348404730722
000170 3e 80 1b f3 aa fa a0 3f 9f 0a b9 84 8d f4 bb bf
       0.033162443329047595 -0.10920032968810255
000180 63 4b 07 90 e6 b1 a2 bf fd 2b 98 f3 62 11 9b 3f
       -0.03651352413330391 0.026433511846374092
000190 11 88 47 04 bd e1 93 3f a5 0f a5 17 67 01 9a 3f
       0.019415810953326288 0.025395975893175344
0001a0 0e 9f 11 dd 7c c4 84 bf 67 7b 52 79 44 53 ab bf
       -0.01014039563797511 -0.053369655427778544
0001b0 ad 16 fc b3 b9 de a7 3f 95 d7 36 03 95 45 8b bf
       0.04662113496855844 -0.013316311035719322
0001c0 8e 6d c7 51 74 1b a7 bf 16 a3 05 f7 2f 46 90 bf
       -0.04513133524207112 -0.015892743541743824
0001d0 77 69 16 27 cd 46 94 3f 6e 79 81 29 2d bf be bf
       0.019801335821833157 -0.120104620583765
0001e0 8e a6 05 81 a4 b0 71 3f 33 a0 eb 36 2d b5 82 3f
       0.004318850129814712 0.009134629477060318
0001f0 f0 1a 8b 59 79 bc a2 bf 9a 01 5e 7b 3c e9 70 3f
       -0.036594192677105286 0.004128681428369774
