trained_model/biases1.npy (npy, 640 bytes, 1 tensors)

array f8 [1, 64]
00000000: 50ac 48d7 256a 8cbf d6ce 2634 8692 58bf
00000010: f3e1 87fa 75ae a93f d80e a218 22b1 9abf
00000020: e1a9 faef 41bc 88bf 882d 9c63 ec4a 973f
00000030: f2d9 95d4 33a2 953f aa85 45f3 afe2 86bf
00000040: 7a95 4c41 dd69 a53f 378c e4fb a63b b4bf
00000050: 00de bd36 89ca aebf 333d 7af1 4401 b1bf
00000060: 4059 6063 3835 acbf 111d 0462 9ada c2bf
00000070: 09ef 0668 bbe9 b03f 4fca 27df c8cb b6bf
00000080: efc0 3dd8 e2a7 93bf 2c35 9ffd 015a b33f
00000090: 8f4d 1892 9c0a babf c53a 571d e2ed 91bf
000000a0: 4db6 840d e4cd 7a3f a4b5 c2ed 3876 9cbf
000000b0: 3736 a069 382a a5bf c5c5 dac6 0391 93bf
000000c0: ce02 4efe aae9 86bf b7cc da74 87a5 b4bf
000000d0: b29f 69ec b2b6 a63f e9cb 9c5d bb1c a6bf
000000e0: 872f c0ea b3c9 9a3f d6f5 8a92 f5c5 b2bf
000000f0: 98a5 6e61 d60a b2bf 933f ff77 7449 bcbf
00000100: 0b7d 96a0 b2f7 99bf d538 0e30 0bb6 90bf
00000110: b13f 9074 4ff4 aabf db44 2af1 82df 8a3f
00000120: acba 91a6 ba0f 82bf 5d39 ee7d 22ef 7f3f
00000130: 0049 4101 6476 a2bf 70fc 8eec 83fe aabf
00000140: 12b7 5fb6 9ac8 9c3f 554a 2c8a 330e 943f
00000150: b074 8a65 f612 763f 92be 3000 4037 7c3f
00000160: dd86 140d ae89 9e3f 881d f8de 2ec0 a5bf
00000170: c1f1 cf27 f9db 943f 2e5f 4aa9 31fc b7bf
00000180: bc2e dc7a 896f 9dbf 2803 9b8e 8d2c 993f
00000190: af51 b61f 2899 8c3f 89ce ee84 1315 893f
000001a0: cf3b 7d84 d7ac 93bf fe05 d549 7b19 b0bf
000001b0: d1fd ac8d 32a5 a13f f24a 565a 20e9 66bf
000001c0: 5e22 e1e9 b576 9abf 7a7e aa83 192f 8dbf
000001d0: cae6 9d56 6d03 8a3f eb8b c2df 442c bbbf
000001e0: d781 5a39 eb55 63bf 1713 6990 b517 833f
000001f0: d1ea 8f9f 8021 a0bf c84a 65ef 8dd7 74bf
-0.013874335892145734 -0.0014997778495002187 0.050159155685779576 -0.026066334489327797 -0.01207782281502018 0.02274674756976716 0.021126565790348502 -0.011174559222754638
0.04182330534085117 -0.07903522157407471 -0.06013897698624859 -0.06642561812826812 -0.05509353840914111 -0.14729623590412946 0.06606646814082863 -0.08904700706606515
-0.019195122192685096 0.07559215967122118 -0.10172442023058735 -0.01750901512223881 0.006544009047770039 -0.027794732581858064 -0.041337740796830884 -0.019107874881859183
-0.011187873731388544 -0.08065077402970898 0.04436263214012061 -0.04318795697908923 0.026160060122534936 -0.0733331187029401 -0.07047786596981209 -0.11049583367935005
-0.025358954478744738 -0.016319441612318315 -0.05264519021886772 0.013121626839423353 -0.008819063385286562 0.007796416029022116 -0.03605949893302984 -0.05272304785420878
0.028108994847506237 0.019585423763667304 0.005389177786722474 0.0068886280087522445 0.029822082088805203 -0.04248186561386108 0.02037038140768899 -0.09369192488736353
-0.02874579250696628 0.024584018544149405 0.013963998286990213 0.012247231001175212 -0.019214026891230248 -0.06288881828825052 0.034463481707003425 -0.0027967101947948764
-0.02584347000109443 -0.01424999173224183 0.012701849180064246 -0.10614424193276732 -0.002360305234859288 0.009322565526539912 -0.031505603292279034 -0.0050883812276249565
