trained_model/biases2.npy (npy, 640 bytes, 1 tensors)

array f8 [1, 64]
-0.02867183401801338 -0.007449756557567875 -0.0271198526508396 0.009427444091577912 -0.02043982221979738 -0.002812258425495746 -0.0018816583571312061 -0.004892640670999414
-0.00488690632689785 0.006457221741594721 -0.01748625864199556 0.014587644916185728 0.00558670630809727 -0.009585092292592853 -0.04286982695086495 -0.0029740708668280266
-0.020635785857950208 0.005250668963430183 -0.11492095997745312 -0.005802153808539294 -0.051807854266562564 -0.030923533279981583 -0.04625495348729868 -0.014515464038482515
-0.011227053357120551 -0.07330431697935856 -0.034124336764043126 -0.022264069548954508 0.002911154728626569 0.0005518547350129575 -0.015636139393198197 0.008437898267035343
0.015156482404958968 0.0010338449349638944 -0.005830307162954661 -0.0016725781608870841 -0.10287413377367509 -0.0007579902839573353 0.0028321194320223486 -0.021544893699210373
0.009152097227095191 -0.0064675911240890584 -0.08984017108972325 -0.03132568770825634 0.013758031042548857 0.011054776985059795 -0.0033244458200544194 0.013909479620509174
-0.04171306322397992 -0.03255708537336576 0.004622446992934834 -0.0309203592100692 -0.015268179036002747 -0.07668802466537328 0.014278424184694211 -0.023964780015654222
-0.07668027029136987 -0.026115274522373874 0.009180602703797712 -0.029587311209642118 -0.0041736099711902576 -0.004054170647706776 0.006432509935702763 0.003064369628642178
00000000: 71e0 b135 265c 9dbf 9757 72cc a283 7ebf
00000010: ffad d480 4ec5 9bbf 3c2f 7720 b24e 833f
00000020: ab5d e13f 2dee 94bf 5c98 e4be bb09 67bf
00000030: b8ba ca46 3fd4 5ebf b2b2 c43a 4e0a 74bf
00000040: ad6b a4ed 4a04 74bf a72e 4043 e372 7a3f
00000050: d4b0 fcf3 eae7 91bf 94b5 b98e 20e0 8d3f
00000060: 448f 2b0e 16e2 763f 7e18 684f 59a1 83bf
00000070: 2171 7ab1 08f3 a5bf 4c08 7d23 145d 68bf
00000080: 7a72 8c25 8c21 95bf 004e aeb7 b981 753f
00000090: d963 bac4 756b bdbf de23 aacd ffc3 77bf
000000a0: 846b 801f 8f86 aabf 0c08 7530 6baa 9fbf
000000b0: bf0b 03b1 baae a7bf d801 a79a 48ba 8dbf
000000c0: 6586 fe97 35fe 86bf 7ffb 145c 12c4 b2bf
000000d0: 3e6b ccbc be78 a1bf 95c1 5a6a 64cc 96bf
000000e0: f228 4c4b 22d9 673f feb7 fe04 4b15 423f
000000f0: 2264 518d eb02 90bf 43c5 d488 e347 813f
00000100: 587a 03a2 5c0a 8f3f 14d9 d38b 42f0 503f
00000110: 25ca 7229 85e1 77bf 689c 1020 4d67 5bbf
00000120: 1b8a 2990 f555 babf b2e5 79bd 7bd6 48bf
00000130: 2e49 d88a 6233 673f 32eb 5557 dd0f 96bf
00000140: 3ad2 3db2 55be 823f 3630 cac5 c27d 7abf
00000150: 3489 b2f4 c3ff b6bf 799d 76a8 eb09 a0bf
00000160: 60af 14ab 2b2d 8c3f 9d59 ec0c e3a3 863f
00000170: f9f4 6142 de3b 6bbf 5081 98c0 927c 8c3f
00000180: bdd7 b924 6a5b a5bf ef05 dd81 52ab a0bf
00000190: 3029 98aa fcee 723f 62ed 592e 96a9 9fbf
000001a0: ff67 084d ec44 8fbf 28c0 ee8d d3a1 b3bf
000001b0: 5d1d 4ba7 013e 8d3f 1139 b129 398a 98bf
000001c0: 245e 2675 51a1 b3bf 4ca6 ff67 f6bd 9abf
000001d0: f989 f6a2 47cd 823f c983 16d8 224c 9ebf
000001e0: 3b02 52e5 5818 71bf a444 8225 1b9b 70bf
000001f0: fa6f e1bc f958 7a3f c2dc cfea 721a 693f
