trained_model/biases1.npy (npy, 640 bytes, 1 tensors)

array f8 [1, 64]
0.020510018651923038 0.04941331854440883 0.23584706456169294 -0.027688488697627113 0.05211003518075344 0.17377436269769406 0.03801508338606231 -0.013489369740259426
0.18670285844158438 -0.19947769242703534 -0.0631250836032607 -0.0894024483365468 -0.06817275293105812 -0.38719787626017677 0.3242026318201662 -0.21858360602796745
0.027237686804532136 0.20138229604963212 -0.21457500380336836 -0.032130869259933255 0.19666424382050596 -0.020590122651569356 0.03885142371666207 -0.030344101239220905
0.15263415316274287 -0.2085980693071719 0.13024141047909576 -0.043068375923669064 0.044515760455481786 -0.1450103701830123 -0.09781879590317248 -0.4146178013592434
0.09954253527844109 -0.13895142329618976 -0.0815690869380336 -0.012064513342423935 0.042228907153543216 0.11296150470015802 -0.042962209653416635 -0.07553908825049753
0.0960537528891247 0.20186299888553974 -0.0693821619862578 0.0021925037571104635 0.11775839109074392 -0.049099191638592096 0.10889257324419198 -0.1690162539653523
-0.09326243069912395 0.09647746945391353 0.09732971005392298 0.15872229710571192 0.029825147407337275 -0.026441695920866735 0.12415879792791297 -0.00882555696996034
-0.0925062585205565 0.044885797364268794 0.09680022318943868 -0.15807311810696145 0.05045784387208226 0.044123889704135104 -0.036640358709535616 0.058252318955932164
00000000: a1c4 660d 9400 953f 6727 45d6 b34c a93f
00000010: 8d35 9392 3c30 ce3f 6a57 ba05 5f5a 9cbf
00000020: 141c caa1 2aae aa3f 43bd 5502 3d3e c63f
00000030: 12b3 cb87 b676 a33f 9947 068f 50a0 8bbf
00000040: efc4 8917 e1e5 c73f 96b9 a02a 7c88 c9bf
00000050: 051e a229 f728 b0bf 23ad c92f 14e3 b6bf
00000060: e432 5100 c573 b1bf 2e8f e799 d9c7 d8bf
00000070: aa76 3c65 bcbf d43f ac7a aa2f 8cfa cbbf
00000080: 4d37 2d38 32e4 9b3f 5166 c323 e5c6 c93f
00000090: 04f1 ef97 3177 cbbf b1b1 5311 7573 a0bf
000000a0: d835 c03f 4b2c c93f 24f0 a2bd 9315 95bf
000000b0: 923e 8874 55e4 a33f f8bd cb29 8612 9fbf
000000c0: e016 0b14 8489 c33f 026e d76e 57b3 cabf
000000d0: 3cdb 4b23 c0ab c03f 0e01 2be4 0e0d a6bf
000000e0: c12f a00e c5ca a63f 7f29 c226 b38f c2bf
000000f0: e395 5611 a70a b9bf 1c5a 4b1a 1989 dabf
00000100: dcf2 949d 9e7b b93f c217 6505 29c9 c1bf
00000110: 7b70 c330 b6e1 b4bf 68a1 fb91 47b5 88bf
00000120: 1030 57fe 069f a53f a3e5 6490 0beb bc3f
00000130: 89c3 d98a 24ff a5bf fb04 9b99 8756 b3bf
00000140: 7b1d 518f fa96 b83f 3d31 3e91 a5d6 c93f
00000150: e020 a884 07c3 b1bf 3156 dc7d 03f6 613f
00000160: 7777 90f6 6925 be3f 7e11 b27c 8723 a9bf
00000170: 5770 dc38 62e0 bb3f ee05 a319 53a2 c5bf
00000180: 1557 ccf1 0be0 b7bf 56fb 1a58 bfb2 b83f
00000190: df5a 9c91 99ea b83f 0b86 9b21 0351 c43f
000001a0: 9100 dac2 7b8a 9e3f d970 ec2c 8813 9bbf
000001b0: 596e 9cf8 dec8 bf3f 3c91 7034 2213 82bf
000001c0: 9067 057b 7dae b7bf 9105 786f 45fb a63f
000001d0: 8e19 d840 e6c7 b83f e0b4 526c bd3b c4bf
000001e0: 8bb8 834a 9cd5 a93f f7cd 800e 6897 a63f
000001f0: 3d09 be6c 86c2 a2bf 6ced a979 3fd3 ad3f
