trained_model/biases2.npy (npy, 640 bytes, 1 tensors)

array f8 [1, 64]
000000 e8 3c eb 69 17 e0 90 bf 2c d2 7f 34 c3 1d b5 bf
       -0.016479841079498764 -0.08248539001198968
000010 23 a0 61 26 31 bc a0 bf 86 49 f8 fe d7 c5 b1 3f
       -0.03268579095384918 0.06942510580873859
000020 61 d7 56 f7 6a 94 b0 bf d9 67 a1 3b 26 32 8b bf
       -0.0647646764617469 -0.013279246039179004
000030 c6 3d 3e 92 89 d4 92 bf 92 4a d9 fc c7 48 a0 3f
       -0.018388890791866584 0.03180527650387889
000040 6d 45 0b 27 0e b5 b5 bf 0a 1f 17 ba 4d b0 98 3f
       -0.08479393437598555 0.02411004494004402
000050 76 44 0e b5 67 3f b6 bf fc 8c a3 82 c8 f3 bf 3f
       -0.08690498514467201 0.12481358708787477
000060 3e da 2b ac 67 1a 70 bf 00 68 ab d0 3e c9 82 bf
       -0.00393143174254945 -0.009172907584275691
000070 d7 75 f8 ee ee 72 a9 bf bb 5e 74 6d 5e 66 a3 3f
       -0.049704996749124035 0.03789038740268099
000080 6a 57 b3 12 47 bd aa bf d9 75 ce e3 49 62 a3 bf
       -0.052225323708326624 -0.03785925775376215
000090 6b 38 21 1e d0 e0 ce bf 48 a1 0e 45 2e 2e 92 bf
       -0.2412357470624927 -0.017754290547288748
0000a0 f7 39 49 3f b1 de b6 bf 95 a5 7b a5 6e 86 a7 bf
       -0.08933551592892984 -0.045947511387406305
0000b0 f8 d7 0a 3d 39 a5 bc bf ab a7 3b 79 69 79 9b bf
       -0.11189611187259618 -0.026830337547756915
0000c0 ef 01 cb f5 ba 75 95 bf a7 bb e7 d2 76 27 c2 bf
       -0.020956918003095678 -0.14182935045343223
0000d0 e9 f1 80 45 39 87 a2 bf 85 bb 40 20 7a f8 a3 bf
       -0.036187925085389434 -0.03900510448180853
0000e0 0b 33 19 53 4a c9 af 3f e2 66 06 66 1d 1b b6 3f
       0.062082598346569005 0.08635123959393412
0000f0 d3 85 65 8f 28 3a b5 bf ef dd 23 b5 f2 db af 3f
       -0.08291867733853246 0.062224945651845213
000100 ff 0a 36 e4 02 12 b6 3f be fb f0 89 f1 f5 8b 3f
       0.08621233054695308 0.01365269376958433
000110 17 bc d4 db ce 6e ae 3f 2e d1 a7 37 13 e6 84 3f
       0.0594391482685454 0.010204458366367488
000120 2f f2 8e 1d 31 c4 c9 bf 7c 80 b3 03 ed 13 b2 bf
       -0.20129980033188263 -0.07061654415474722
000130 2d a7 3d 7f ab 7e 69 3f d3 19 bc 7d 49 72 36 bf
       0.0031121587325530138 -0.00034250539987148754
000140 39 8d 8d 5e c9 c2 78 bf b1 39 4e c1 3d fc a6 bf
       -0.006045137976659115 -0.044893197867270536
000150 2a d9 5c ab b7 33 c5 bf 5c 0d f6 e3 95 c2 9f bf
       -0.165640791581333 -0.03101572231163395
000160 ef f2 86 20 61 d5 94 bf 7a 4c 65 1d b1 d1 71 3f
       -0.02034522782354292 0.004350368361275442
000170 ea 9f 0a 81 a7 b3 a8 bf 93 27 37 90 61 71 b0 3f
       -0.04824565363134055 0.0642300583923812
000180 c9 d7 31 6c de 8b b9 bf 7f 39 20 46 aa 4f b1 bf
       -0.09979047910186901 -0.06762184345300247
000190 91 66 e9 87 58 86 73 3f 5c f4 3c 3d 30 63 b3 bf
       0.004766794036720549 -0.0757322453982438
0001a0 1c 91 62 35 1f 38 99 bf 86 1c b5 be 51 47 c0 bf
       -0.02462815059028954 -0.12717649280441296
0001b0 d8 6a ec c5 89 d9 ac 3f b4 ed 12 d9 bb a6 af bf
       0.05634718457277693 -0.06181895279720653
0001c0 79 0a 5f f7 0b f1 b2 bf 4e c6 02 6b ba 19 b8 bf
       -0.07399058141076321 -0.0941425811058931
0001d0 8e 41 ce e0 be 10 9f 3f 85 9f bf 85 51 46 9d bf
       0.030337316962290077 -0.028588556087839407
0001e0 53 fa 63 47 93 09 91 bf 78 65 1a f7 31 4b 7a bf
       -0.016638089401562372 -0.006419367958778614
0001f0 58 71 ee f9 be 5a b1 3f 12 4a 3a f9 b0 47 98 bf
       0.06779092408982501 -0.02371098061719052
