trained_model/biases2.npy (npy, 640 bytes, 1 tensors)

array f8 [1, 64]
-0.0213127014856043 -0.02024716039687667 -0.022991014880812087 0.01632949200440858 -0.029312458188203456 -0.0075972878441152155 -0.006203010902067454 0.004107686968129141
-0.017431727456326932 0.006679260751714285 -0.02850539327013959 0.029684389020936067 0.0046762276281647076 -0.0049561821449349295 -0.04698303038461008 0.0038104841522832557
-0.02472728827527128 -0.004487176844836383 -0.14268026360652786 -0.01100927325099673 -0.05967804983307207 -0.034549756335661805 -0.0643366797332969 -0.021589671538295878
-0.018714066085460772 -0.08757903382367412 -0.02881842421005131 -0.027281889109160327 0.01902290905310858 0.014679934289565834 -0.028635313524109415 0.01450768628499704
0.020455380997494887 0.00508512009547839 -0.006977135351003833 0.0018687696328061562 -0.13062382266226022 -0.01447945669617566 0.003561176848088156 -0.01734997719135239
0.0039517234368028455 -0.017107518568010165 -0.10623780887316367 -0.032263740357413126 0.002453350426252315 0.0038544840465534556 -0.011234332709302016 0.024713942518130607
-0.055665833430189875 -0.04243933988366234 0.00034407962265884425 -0.04480903711476771 -0.018074563844249533 -0.09094091011674683 0.02314803059705276 -0.028206959653227198
-0.07394669568021678 -0.040137380469464794 0.011174790022957428 -0.030506339891631765 -0.007922973889001204 -0.006283399487312755 0.01883214290399788 -0.0038687686295779252
00000000: 89f6 7a2f ffd2 95bf 1c3f f7ee abbb 94bf
00000010: b64b 0fe4 f48a 97bf fe16 7aa8 adb8 903f
00000020: 9582 22c5 1504 9ebf afa7 426d 551e 7fbf
00000030: 1cb6 600f 5468 79bf 0b8d 0bd3 38d3 703f
00000040: 81d0 596d 9fd9 91bf d552 d767 b65b 7b3f
00000050: 8762 6b8f 8430 9dbf 21c8 2fa0 9565 9e3f
00000060: 32b6 b44b 6127 733f 41b5 9b03 ef4c 74bf
00000070: 5510 f0e5 280e a8bf 1a88 1c1a 2a37 6f3f
00000080: a51e d839 1c52 99bf a78e cc5c 2561 72bf
00000090: d8c2 fccc 5843 c2bf 6cac 86a4 078c 86bf
000000a0: a8ea a410 1f8e aebf 7ec6 1773 81b0 a1bf
000000b0: ae42 635f 5e78 b0bf 2ee2 c054 9a1b 96bf
000000c0: feba 3fb7 c729 93bf 6d84 165e 946b b6bf
000000d0: fd87 04b6 9382 9dbf 69de fc95 c8ef 9bbf
000000e0: a912 08d1 bd7a 933f 07ec 726d 8310 8e3f
000000f0: 1f14 635c 9352 9dbf 5dd8 13b1 34b6 8d3f
00000100: e055 a561 41f2 943f b3da 1988 22d4 743f
00000110: 61ee 6f82 0e94 7cbf 6aec 391d 309e 5e3f
00000120: 47da 340b 48b8 c0bf f897 cac7 67a7 8dbf
00000130: 8344 2143 542c 6d3f 4f29 7e42 31c4 91bf
00000140: 8d50 c8ae ae2f 703f 1baf 0f23 a284 91bf
00000150: de7c b5aa 6632 bbbf 060b 5d7b df84 a0bf
00000160: 598e 157b 0c19 643f 5467 885d 7093 6f3f
00000170: 5e74 a19c 0602 87bf 377d 7b9b 9c4e 993f
00000180: e7ab 2c6c 3b80 acbf f172 baf1 9bba a5bf
00000190: 6e82 feb9 b28c 363f 5344 f2c9 35f1 a6bf
000001a0: 9ced 6672 2382 92bf 2de5 d14a e747 b7bf
000001b0: ea4b 8609 1eb4 973f 28ba eb04 49e2 9cbf
000001c0: fc02 98af 2bee b2bf af4a ed00 e38c a4bf
000001d0: 4e93 81ed cee2 863f a1f1 9ed0 0d3d 9fbf
000001e0: ff2d ec8d eb39 80bf b031 e434 9fbc 79bf
000001f0: 328a 8bb7 bb48 933f 9eab ac57 65b1 6fbf
