trained_model/weights1.npy (npy, 460928 bytes, 1 tensors)

array f8 [900, 64]
00000000: 2781 88c4 8455 b23f dbfb 007f d471 c0bf
00000010: 5243 1587 9e5b b1bf 8849 1b87 e350 b03f
00000020: d49e 1ace 1a67 b3bf 18dc f77e 6964 b4bf
00000030: d703 a6e7 b74d b0bf 76d3 851d 2a17 913f
00000040: 15e5 07a5 f307 8fbf 6d2f 67dd bbcc c03f
00000050: 9568 3bef fc02 d5bf 13cd 8749 d932 873f
00000060: 6e78 c5b1 9b9b a2bf a828 7fcc b752 bf3f
00000070: d098 a5ca 0fec a33f 50af edec 4eed 9ebf
00000080: 6df6 fdae 88d2 c4bf 9894 28e7 254c 9abf
00000090: a94d 15f0 7b5b 97bf 46d1 2c1c 5b84 b03f
000000a0: dedd d8ec 4325 c93f 1b06 8500 6d18 b03f
000000b0: 9470 93e7 f0c5 b3bf 123e b9de b686 a33f
000000c0: 4ee0 110b 8355 c9bf 6768 76d3 ce28 bc3f
000000d0: 771a 7be4 53bb 953f 4047 f082 0ea9 b03f
000000e0: 5dfa 2005 140d bb3f 1d70 3a86 74e8 92bf
000000f0: 7884 e259 5cb5 a1bf 789a 3e90 47c6 843f
00000100: 0754 3579 e421 923f 2ac7 e2e4 9e8f b5bf
00000110: 4de3 2228 de9f c9bf ea7d ceee 837c 92bf
00000120: 2666 220e 576d a33f 90b9 dcce f874 9dbf
00000130: 292e a572 52fd b03f 328d 2eed 9cbb 9abf
00000140: 4a2b c7f7 06d0 c53f 9d95 562c 8e1a 743f
00000150: d295 07ea 2303 a9bf 3a17 5f19 22ba ba3f
00000160: b87a 39b7 96b6 b03f 2a74 dadc 52bd a03f
00000170: 0426 b2ac 1c4f bdbf 019b 099f ad8a b9bf
00000180: 947c 817a 1a98 cb3f d56e a6d0 f301 933f
00000190: 57e0 5890 5a72 c0bf d8b7 9a43 fd74 c6bf
000001a0: bb1f f111 5855 ab3f 6595 cd71 baa6 afbf
000001b0: 60e3 cc03 96f1 aabf d56b 4544 7d69 ccbf
000001c0: ddee cef4 a86d 6e3f 5676 46ba 1b06 933f
000001d0: c217 1bbc 632e b13f c883 0ce0 0e10 a6bf
000001e0: 8dda dccb a109 b2bf d141 dd8a 1627 a93f
000001f0: 1dfa 8c9d fdbe b1bf 2674 5373 b075 aabf
00000200: f388 7f7e 05e8 bc3f 36cb 5637 2e23 893f
00000210: 644c 60b1 aef5 b73f 557e ffe7 0639 bdbf
00000220: 0a88 4e9c a1e1 a43f f248 87dc 2ade b3bf
00000230: 49f7 afd4 5938 b4bf ea0c 7ed0 7afe afbf
00000240: 6721 4247 fbd6 afbf 91e5 f752 8965 adbf
00000250: f4ff 75e1 021d b3bf c24e 7e36 5187 19bf
00000260: fde3 59c4 d3ce 91bf b1fb de47 b844 b93f
00000270: 034e 67cb 0824 b4bf ea79 ad14 5ce2 b63f
00000280: 6560 dfe9 ed09 95bf 8cc8 d381 c60b b03f
00000290: 3eef 2a32 7524 a93f 441b 4db1 68bb c6bf
000002a0: 5940 3704 aa6d c1bf 7969 1e07 4773 c4bf
000002b0: 1a07 89f4 39c5 9a3f 5743 13b1 5503 b63f
000002c0: e480 eb98 43aa 853f ba24 7cd1 fd55 b13f
000002d0: ba96 f1b7 b563 c6bf 3333 ebb2 3b9d 933f
000002e0: 2ee9 f5a7 653b c8bf b3cb 1892 70b6 9f3f
000002f0: 5fa6 1628 3c49 c1bf e532 692d 0863 c1bf
00000300: 1e08 3e8a c2ef a6bf ee6d f569 2a8c b23f
00000310: 8b39 2a2f 0884 993f 9635 5952 9c8e c1bf
00000320: cde9 d9be 0adb c3bf b939 c109 5a46 bd3f
00000330: 6e91 0e01 2cc3 ba3f 1f16 9e36 d664 c03f
00000340: 1be1 c074 feda c1bf fd54 baad 9539 b73f
00000350: 9044 daa3 9b9a c3bf 7518 3977 6e78 c43f
00000360: 7023 d0af 46f6 15bf 7458 80b0 f7cb b9bf
00000370: 66fe 4756 48c0 c0bf 23fb e3c1 069e aebf
00000380: fec6 04d3 b484 b4bf 9406 e4e8 efef bd3f
00000390: 1381 c515 3f37 a13f 8ee9 b6ea 11cc b9bf
000003a0: 752c 8a74 073f a7bf ec20 acd8 96b4 9d3f
000003b0: bc8b f76a f22e bc3f 5eb0 eedf 8c6e a03f
000003c0: e106 a908 f8f8 c9bf 7fac fafc aebc a03f
000003d0: 690b b334 e782 a2bf 15b2 7046 a7b9 c83f
000003e0: f475 5a46 db0c cabf e6ff 7401 d9cb c13f
000003f0: a42b 8ae5 5462 b63f 6ea7 4511 f518 bc3f
00000400: e3b8 f56d 624a 933f 708d 3cc7 f8de c83f
00000410: 3329 8b79 74a6 6cbf bbaf 143a dc72 acbf
00000420: f34d 3f94 f875 acbf e70d 4c22 831f ad3f
00000430: 92f1 2555 fab1 7c3f b942 6ee7 975e cf3f
00000440: 77dc 11b3 2c6a c3bf 2e5a f9fa bccf a7bf
00000450: 5392 0b7f ab61 863f da50 1d8f b5ae a7bf
00000460: 6bc9 3d59 f907 9c3f fed5 1697 ec52 d2bf
00000470: d33a 6708 d798 bebf 0a7e f754 b475 883f
00000480: 09c1 7732 e001 b83f fd5f 06e1 c3aa c8bf
00000490: 4d56 961c d09d bdbf bf58 21c4 dda5 b43f
000004a0: 1d86 0afd b46b b9bf bd31 cfc7 cc3b b63f
000004b0: 90cf 8c71 61ea 573f 8fad 74a7 f20b c13f
000004c0: 5ca0 0ce1 8311 c3bf 1e39 d098 c13f 703f
000004d0: 84fc 7d1c e697 b3bf 71d2 6f00 81ca bcbf
000004e0: 52c4 31bb 35f1 af3f bf95 8065 79dd c33f
000004f0: 1b57 ef95 1226 80bf 9a63 1499 66af a13f
00000500: 8b60 1af0 a2d6 98bf 2408 6ce3 f050 943f
00000510: a7cb 55bd fab8 bf3f d8c7 b6ae 9ce9 c9bf
00000520: 9bec 67e4 0e71 bb3f 2ce7 c30d 5982 913f
00000530: 6d5c ba32 eaaa c03f 8183 a7e7 5663 8ebf
00000540: 8116 f945 79e7 c73f 0cba b84d 3e8a c83f
00000550: 9129 1387 8fdd d0bf 58ad 5437 9816 b13f
00000560: e5cd 99e0 8ef6 a0bf 2b0a d742 6285 9cbf
00000570: 2cf6 000a 5341 ba3f 94a6 77a9 e52a 8ebf
00000580: 2838 a80a c1b2 c83f 9388 6112 f6d3 a9bf
00000590: 4fce 3694 9b18 a1bf f822 62b5 e53c b73f
000005a0: fcf1 520f 68fd 5fbf 7c31 f5b5 9f5f b33f
000005b0: 6184 5000 0cb4 773f a66b e70d 9e3b 9a3f
000005c0: bc2a 4c8f 49d0 cfbf 2c1e 6c29 cf03 b4bf
000005d0: 2339 e4c1 1181 bfbf 8bfa 1613 7895 b7bf
000005e0: 4175 3d5f c274 bebf 15cd 8141 166e b9bf
000005f0: a93b 0fc0 8101 9c3f f030 8c43 c186 a1bf
00000600: bb93 701b d1c9 bbbf db71 ba0f dae4 adbf
00000610: 3fc2 a9ab 61cc 7c3f c72c a157 e726 b6bf
00000620: 6baa f8fc 5595 a9bf a776 b90d ecb9 bb3f
00000630: 1993 9c7e 16c8 b2bf 7566 38c9 e68e 993f
00000640: f911 0fd0 d73c a8bf 184c 1154 b9e8 aabf
00000650: a73e c756 6877 a1bf fe67 e859 4a1a b83f
00000660: 76cb c4b8 16a1 c2bf 31fe 1e92 e10b b23f
00000670: b5ba 158a e10d b13f bfdf 88cc 8282 b3bf
00000680: 4349 b448 50cb a6bf a789 5b29 fcf4 813f
00000690: 1ff5 15e8 c8ed b6bf 5e8b 208f 3a1f 813f
000006a0: 6c6b f28a 7e55 923f ee36 95ef ea39 d1bf
000006b0: 70e3 dd87 65a8 78bf 4526 b51b 51e4 a33f
000006c0: 5f6d 3c53 3e0c 793f a39a 38c9 3b38 c0bf
000006d0: b435 80f6 c1a6 a13f 434a 7518 54cc b6bf
000006e0: 1407 b3e4 871f da3f f317 49ad fb89 c13f
000006f0: fc17 1787 d9df a5bf a632 3e33 a586 c5bf
00000700: 744f f8c4 eeae cabf b855 6b71 50d9 b5bf
00000710: 52de 9a88 de38 bf3f bc19 b686 19cf b63f
00000720: 395a fe72 2d46 79bf e9cb 3b8a a30c a0bf
00000730: c7b0 7151 a530 b93f 3f2d 3888 62cf 543f
00000740: 052b e697 d7b1 bc3f f39d 3f97 1d7d b13f
00000750: 83cf e22a cd2f c0bf 1af3 be98 8f8d bbbf
00000760: 7da1 3fc8 bf2e a03f 4950 fcff ee2d afbf
00000770: 983b 1e65 5f0b 913f 8f88 0c91 1f39 9f3f
00000780: 52c9 36f8 1229 9e3f 3547 b8ad c85b c53f
00000790: 1711 779d ec99 8cbf f8de d6bb 7f84 a2bf
000007a0: 59f2 7c9e 2e6e b6bf ce66 b610 b13e ba3f
000007b0: 3c9a d4a4 6aed b53f f40f aca6 fe96 bb3f
000007c0: 0ec5 1348 5e30 b0bf aa7d 3742 c445 b23f
000007d0: 03c1 7b74 72ac 89bf 07aa 45ab 8b92 c33f
000007e0: bfaf 3513 7311 c03f 1555 ed4b 0160 ab3f
000007f0: 160d d371 7185 983f e42a c2e6 a048 c6bf
0.07161741064237913 -0.1284738178382828 -0.06780424879003746 0.0637342648363185 -0.07579200298152539 -0.07965716695603964 -0.06368588834267484 0.016689928104330197
-0.015151885484544306 0.13124798117348338 -0.3283073745966559 0.011327455097648575 -0.03634344620762496 0.12235592596622047 0.03891038273541059 -0.03020213433357749
-0.16267498535664818 -0.025681106790348268 -0.02280992176868116 0.06451959073894384 0.19644974770356688 0.062872707964765 -0.07723909047803296 0.038137163818302025
-0.1979221157123469 0.10999767935428083 0.02122241098438812 0.06507960030310489 0.10566830754485453 -0.0184648711134373 -0.034586797687787774 0.010143813218588024
0.01770741452977023 -0.08422272766145214 -0.20019127807406747 -0.018053113413428003 0.03794357345141135 -0.028766524911753744 0.06636538790660808 -0.026106311775618347
0.17041098688636175 0.004908137668654969 -0.04885208350951199 0.10440266723079797 0.06528608296637628 0.032694425067554114 -0.11448840347488703 -0.09977231152297962
0.21557932836274019 0.01856213532447167 -0.12848979995920004 -0.17544523049349325 0.053385498228237314 -0.06181891097257156 -0.05262440487280773 -0.22196927865556285
0.0037143993308442606 0.018577988857592174 0.06711409895350953 -0.043091263627736576 -0.07045947291485728 0.04912634320374177 -0.06932053657963207 -0.051679147794608846
0.11291536653837735 0.012274132789433883 0.09359256582711023 -0.1141514126206798 0.04078393013993782 -0.07760875591273811 -0.07898484652102157 -0.062488401365976845
-0.06218705410816732 -0.05741528642461014 -0.07466142658631708 -9.738381561269063e-05 -0.017390545710870942 0.09870483164466638 -0.07867484060198397 0.08939147476983292
-0.020545689963768505 0.06267967862712193 0.04910627591513482 -0.17759426743779205 -0.13615918355799542 -0.15976798865888123 0.026142983961341938 0.08598838399053697
0.010578659157033994 0.06771837581995302 -0.1749179027712467 0.019154484553655492 -0.18931265546036385 0.030969389836353844 -0.13504745442814944 -0.13583471505480485
-0.04479797303703513 0.0724512585342649 0.024917724493712917 -0.1371646310894163 -0.15512213057429705 0.11435473192361813 0.10454058671763786 0.1280772940337309
-0.13949566555835066 0.09072242251780334 -0.15315576077094706 0.15992527791439995 -8.377844274333273e-05 -0.10076854762186988 -0.13086799824667422 -0.059799395721702696
-0.08014993812392032 0.11694240032013631 0.03362462178006544 -0.10077011089643959 -0.0454027490387369 0.029009205793983847 0.1100913535261005 0.032093431792731705
-0.20291042731155698 0.03268954122662481 -0.03615496176055084 0.19316569270576225 -0.2035173505327489 0.13903343745368985 0.08743792156216884 0.10975581809694088
0.01883844181195905 0.1943045590242991 -0.0034973406694450925 -0.055563814248983566 -0.05558754739436358 0.056881044327407974 0.007005670415648162 0.24507426071479246
-0.15167769187584998 -0.046506791721800375 0.01092847806416689 -0.04625480052951199 0.027374168464527154 -0.2863112903099533 -0.1195196528926588 0.011943253367404889
0.09377862197994004 -0.19271133887809802 -0.11568928430491461 0.08065591848694263 -0.09929972818147133 0.08684997442396188 0.0014596892926421502 0.13317711998511725
-0.1489720200418131 0.003967052686688425 -0.07653654285057782 -0.11246496449150258 0.062387160397414335 0.15519635635534532 -0.007885117722178194 0.03454132670066841
-0.024256273178793235 0.019840015297639138 0.12391631243171607 -0.20244177370983496 0.10719388080899465 0.017098800149120283 0.130215906877058 -0.01483791250660871
0.18675151745462773 0.19171885294913726 -0.2635229891863214 0.06675101614807966 -0.03313108913144073 -0.027852568940725114 0.10255927080375987 -0.014730257257684877
0.1929551412617354 -0.050445260757230014 -0.03339086708311056 0.09077296903900478 -0.0019525066575588603 0.0756778544648053 0.005786940460013574 0.025618047331459025
-0.24854392525624813 -0.07818312417304502 -0.12306319221190569 -0.09212446657236677 -0.11896910500714332 -0.09933604335110531 0.02734949812639412 -0.03423122357898645
-0.10854823036113619 -0.0583866256904206 0.007030850911732999 -0.08653112306017184 -0.04996746743230037 0.10830569586820592 -0.07336559859374993 0.024959188491357105
-0.04733919539242843 -0.05255679274764463 -0.03411413249307076 0.09415116019263789 -0.14554103872213958 0.07049379174622385 0.06661805745327849 -0.07621018880388329
-0.0445199097395226 0.008768053066380356 -0.08956580797344714 0.008360345356839435 0.017904259901665595 -0.26916001698269454 -0.006019970516597847 0.038851294166829344
0.006115191896039234 -0.1267161114239644 0.03447538503688055 -0.08905530545352129 0.4081744893447745 0.13702341042716135 -0.04272346281099712 -0.16817154886338875
-0.20846352212594932 -0.08534720200562773 0.1219615062244597 0.0890975908169826 -0.006170442138588466 -0.03134642660543092 0.09839852560407102 0.001270147536049773
0.11208865602945302 0.06831536238279749 -0.12645878404657304 -0.10762879828594088 0.03160666770401386 -0.060897320507280535 0.016644945666083183 0.03049134562309824
0.029453560256749008 0.16686352236188787 -0.013965462260678891 -0.036167136840445424 -0.0876187455114147 0.10251909883518381 0.08565393947774508 0.10777274674552456
-0.06323804149339571 0.07137705437297961 -0.012535947971145328 0.15290971625229607 0.125532516841643 0.05346683551639778 0.02394654519299618 -0.1740914465666129
