trained_model/weights1.npy (npy, 460928 bytes, 1 tensors)

array f8 [900, 64]
0	0x3fb1842f7ffcfee1	0.06842324137414436
1	0xbfbfaa4dc75eab5a	-0.12369238011767206
2	0xbfa626f3266460c4	-0.043265913425956565
3	0x3fb0b0eb5488d6e6	0.06519957364875104
4	0xbfb1c9b0e252e5de	-0.06948380971416365
5	0xbfb0e2a293f6965a	-0.06595817673095308
6	0xbfb296762e4e9368	-0.07260836248913238
7	0x3f82bbc9c3a812a7	0.00914723995539053
8	0xbf87536b92df4fbf	-0.011389580173194134
9	0x3fbe41ed0b982520	0.11819345028938644
10	0xbfd4776babbb7d25	-0.3197888543199546
11	0x3f87a368720edec2	0.01154214475705773
12	0xbfa4eb22a174eabf	-0.04085643978983943
13	0x3fbdc5152ee816e8	0.11628849406414654
14	0x3f9ea9846c068add	0.02994353207908317
15	0xbfa4b0e44b7dadbc	-0.040412077155305565
16	0xbfc3a15b5a336449	-0.153361720126471
17	0x3f5073e9b24262ab	0.0010041982832601863
18	0xbf913da84b8f8829	-0.01683676682649363
19	0x3fb0d4f3036b57ab	0.06574934800604974
20	0x3fc9f07fd30b4df7	0.20265195660486743
21	0x3fada176dd846ba0	0.05787249998157695
22	0xbfb33b64ad58f685	-0.07512501937977774
23	0x3f9fa0d1a074a427	0.030886912744936403
24	0xbfc78ba46019983e	-0.1839490384329014
25	0x3fb68092c60bd4dc	0.08789937338936532
26	0x3fa5ce8b317972a6	0.042591428555828245
27	0x3fb11d41a4fddf76	0.06685266759984451
28	0x3fb3c81f4f894018	0.07727237407493737
29	0xbf9a639a4f6f0462	-0.02577057943176831
30	0xbf98b7ef36619bd3	-0.02413915414254204
31	0xbf813d02cb6c2f20	-0.008417150338139445
32	0x3f997c4d1b14547f	0.024888233926578792
33	0xbfb5dfffe9699e38	-0.08544921349095425
34	0xbfc9c630b2720880	-0.20136078560978277
35	0xbf9512106e7c75fb	-0.020576721900502176
36	0x3fa46963aa088411	0.03986655665017492
37	0xbf98afaeb3a08fa5	-0.024107675279210778
38	0x3fb175654bcfd877	0.06819756604076753
39	0xbf9a02a2901c7838	-0.025400676771021063
40	0x3fc1b177d7c62775	0.13822839771119858
41	0x3f81e9c024dddc46	0.00874662506588043
42	0xbfa2b4297f2a4bca	-0.036530777714822785
43	0x3fb78b3c3be9a254	0.09196831190787097
44	0x3fb56878ec1e95e8	0.08362537159572236
45	0x3fa2f626fe3d0c0c	0.037034243140190964
46	0xbfb9418d1e59957f	-0.09865648261037128
47	0xbfb8e64bd11539ec	-0.09726404051364285
48	0x3fc9de100480471d	0.2020893117883639
49	0x3f76575360192666	0.00545437401303559
50	0xbfbd039187c94b82	-0.11333570065589352
51	0xbfc48d8509a1496e	-0.16056883783546588
52	0x3fa86bbb8e00758c	0.047696934780314754
53	0xbfa953dcc09cba86	-0.04946794368003275
54	0xbfa3dbc622deeb56	-0.03878611732166941
55	0xbfcbcc310514a172	-0.21716892955852135
56	0xbf7ddb03a7d2fafd	-0.007288946418326556
57	0x3fa16c62da79415d	0.03403004567064969
58	0x3fb1f75617d33d3a	0.07018030244511389
59	0xbfa4878dac9de284	-0.040096690484408476
60	0xbfb36c47a63a1c98	-0.07587096985126818
61	0x3faa9e3887cc9b0d	0.05198837907510354
62	0xbfb0e48662cbcac1	-0.06598701393140073
63	0xbfa56be90fc2dee4	-0.04183891599080683
64	0x3fbc16b039f406ad	0.10972119727014258
65	0x3f917703f6389702	0.01705557051004459
66	0x3fbe3dd3a5435f54	0.11813090119119113
67	0xbfbcd8ff1a91f0f7	-0.11268610380824727
68	0x3fa81c7573ddf9f9	0.047092123407299576
69	0xbfb05c63f1860335	-0.06390976568765157
70	0xbfb681181b5886da	-0.08790732066747911
71	0xbfb1ed8eb72b78ff	-0.07003108951491653
72	0xbfade9d942b7fc10	-0.05842474879681714
73	0xbfb20a4f58b22c84	-0.0704698173087071
74	0xbfb0eebdd3765238	-0.06614290630961583
75	0x3f1ec0430d0a88d4	0.00011730584379646424
76	0xbf966de1a3b8c89f	-0.021903539293085413
77	0x3fb7b715aa47e9f1	0.09263739974259246
78	0xbfb66faf95b877b7	-0.08764169125831144
79	0x3fb4453daa2a0ee0	0.07918153194810484
80	0xbf87010687159e7e	-0.011232424733591314
81	0x3fb6e09fa266f73e	0.0893649837007304
82	0x3fac335f046dd200	0.055079430857322365
83	0xbfc6931cbdadd812	-0.17636451017068616
84	0xbfc0a26e1e04d040	-0.12995697465669487
85	0xbfc5171fcfffd19c	-0.1647681966420692
86	0x3f9cef6add72ef52	0.028257055059597143
87	0x3fb4282ea9d3cd57	0.07873813291717134
88	0x3f992417243800de	0.024551736436479447
89	0x3fa75b8388232260	0.045620069855037526
90	0xbfc3a77d68229d61	-0.1535488851998066
91	0x3f956e083b21940e	0.020927551850395125
92	0xbfcbdde002c1c652	-0.21770858893028106
93	0x3f983b4ac8e4376e	0.023663681518022832
94	0xbfbfe5c5f0d47174	-0.12459981088290367
95	0xbfc3c33cd323df7e	-0.1543956786115323
96	0xbfa3428e394e87e4	-0.03761715364022658
97	0x3fb23bc9656e96e0	0.0712247727047628
98	0x3f985173dcb10fe8	0.023748216957997587
99	0xbfc1e14de24ef498	-0.13968823957649046
100	0xbfc39c0797e06250	-0.15319914737553342
101	0x3fbe77ac90904432	0.11901358155616107
102	0x3fbb3b3eda393bbc	0.10637276485179731
103	0x3fc07bf5824058bd	0.12878292903832814
104	0xbfc5f98d94c1e4f0	-0.17167825473351384
105	0x3fb83524cf90a72a	0.09456090991502877
106	0xbfc206dd0922f20c	-0.1408344549762578
107	0x3fc2e0fb887e5e00	0.1474909225914729
108	0x3f92b1928ce49ca7	0.018255510186602788
109	0xbfb8af8d9fcf0c84	-0.09642872954923304
110	0xbfbd73011e376c47	-0.11503607738215847
111	0xbfad554325fb38f7	-0.05729112471236591
112	0xbfb7f8c9bf0731ed	-0.09363995469829663
113	0x3fba94e82abbfd44	0.10383463900870021
114	0x3fa8f98647966b62	0.048778721083371904
115	0xbfb5fd2176c40cb8	-0.08589371823841219
116	0xbfaa28a3f87ad6a4	-0.05109131248665946
117	0x3fa52d291d86eb56	0.041360173086522664
118	0x3fbfb9da5b6e87c2	0.12392964107723883
119	0x3fa2e3bddcb1d9eb	0.03689378088977321
120	0xbfcb6186c9bada75	-0.2139137730607278
121	0x3fa8a603fa50b2b1	0.04814159803968233
122	0xbfa0f1027d42c07a	-0.033088758268946486
123	0x3fc91bc7934c5a68	0.1961602658490904
124	0xbfcabe2e338916f7	-0.2089288474691597
125	0x3fc229a180b0d635	0.14189547332505162
126	0x3fb73ccc204b5b00	0.09077144421040018
127	0x3fbe9dd8c30df210	0.1195960499007429
128	0x3f900509940fbbc0	0.015644216215090045
129	0x3fc97ba6b1a092e8	0.19908603356557042
130	0x3f958bce42e397c6	0.021041128952582054
131	0xbfabb2cd7ba2a6ac	-0.0540985310957017
132	0xbfa93b23a6e88073	-0.0492793217893003
133	0x3fb211892143edc3	0.07058007299558881
134	0xbf5f68504b1b7aec	-0.0019169601550214589
135	0x3fce676e79fe3c42	0.23753148037619282
136	0xbfc2eee4abafb210	-0.14791544325943606
137	0xbfae7ed35af62a10	-0.059561352590282834
138	0x3f93e9eec430e918	0.019447069859077265
139	0xbfa792909e61e03a	-0.046040076574115976
140	0x3f9768e9482d065c	0.022861142187372216
141	0xbfd2b6553535187d	-0.29237871356998096
142	0xbfc0724120a67ce2	-0.12848676771407158
143	0x3f5c65f16b4abe9a	0.0017332894905556563
144	0x3fba643bedf737cf	0.10309195098599776
145	0xbfc540557f15b6a8	-0.16602581696809193
146	0xbfbc165a83b9584f	-0.10971608844678936
147	0x3fb4f673edf59698	0.08188557204774793
148	0xbfb7d53d3e02c7d3	-0.09309752239167261
149	0x3fb4f41a765c3efc	0.08184972180992739
150	0x3f6d46a901467624	0.0035737324598830323
151	0x3fc01e5e95ff3f77	0.12592680286479283
152	0xbfc147a42ecbceaa	-0.13499882016150383
153	0xbf9291089a37aa93	-0.01813138428944201
154	0xbfac3ee4da7415bd	-0.05516734282177136
155	0xbfbc564d1b33e25d	-0.11069185175063852
156	0x3fa16740c98f6369	0.03399088345003671
157	0x3fc2ee13d9c73ccb	0.14789054998116166
158	0x3f64fe31d6953195	0.002562615719091175
159	0x3f905d1dac37fe6f	0.01598020900382696
160	0xbf917c37be5a3c6c	-0.01707541560477603
161	0x3f930f6c2a2793f3	0.018613519738114048
162	0x3fbf6c55a380f55a	0.12274680368223781
163	0xbfca3c4decdf4610	-0.20496534410499168
164	0x3fbbef1628a46e92	0.10911692135089826
165	0x3f9647a2c8d735e2	0.02175764418443816
166	0x3fc0e6f3d1ef043b	0.13204810858408841
167	0xbf8cf15a844e36b4	-0.014132220423359022
168	0x3fc3c8e7ab8d8e1e	0.15456863285645367
169	0x3fc90805db9f339c	0.1955573389408557
170	0xbfd013afd26aef0b	-0.2512015871868562
171	0x3fabcf5d862b1df5	0.05431644690321128
172	0xbf8e4b1f28e312b8	-0.014791720805427885
173	0xbf9813b5fa632ceb	-0.02351269093268808
174	0x3fbe4ee38d449fdf	0.11839124869277338
175	0xbf8907d339bf0ca1	-0.012221956443573769
176	0x3fc6f8b60a982b87	0.17946506039910678
177	0xbfb0450583ca4f1b	-0.06355318515334966
178	0xbf92ac9d27e112f0	-0.018236594733269607
179	0x3fbb0bd747276260	0.1056494282451097
180	0xbf7f4c510f7c0024	-0.007641140596888394
181	0x3fb68910b595021a	0.08802895005374758
182	0x3f9418a9ad6ad7ec	0.019625331124835485
183	0x3f9f25fb9af9c988	0.030418330511062602
184	0xbfd09c6ca94a6993	-0.2595473912457688
185	0xbfb00f2444334ab7	-0.06273104348228285
186	0xbfbeb81fa93b81f5	-0.1199970043339887
187	0xbfb6d13885df4e40	-0.08912995594374085
188	0xbfbfd76865209b2d	-0.12438061207704428
189	0xbfb8b2854467de20	-0.096474007797831
190	0x3f9f6b602caefc45	0.030683043219820644
191	0xbf98f9ee8363b24b	-0.02439091374337669
192	0xbfbcac096a989f76	-0.11200007297941092
193	0xbfab644503106bf6	-0.05349937117008345
194	0x3fa0a9a1210b59c5	0.03254416969655297
195	0xbfb5d0060e735b9c	-0.08520543911741502
196	0xbfa6332e371e3ae3	-0.04335922644451331
197	0x3fbf54047531c987	0.12237575398629562
198	0xbfb51fb5ce903e06	-0.08251510899594203
199	0x3f91bc35b658513c	0.017319525961356094
200	0xbfa64ec75adb30f5	-0.04356978401264825
201	0xbfb0e9d729ec4bfb	-0.06606812261115629
202	0xbf99a5b92bcb81fa	-0.025046246812850705
203	0x3fb827632f1cd176	0.09435100460252052
204	0xbfc338f90b654744	-0.1501761727945966
205	0x3fb0824f906e42e1	0.06448838497295696
206	0x3fad3754c7da442a	0.057062768360204366
207	0xbfb63866ad9147f3	-0.08679811227310079
208	0xbfa1ec5aa601e0d6	-0.03500636364418745
209	0x3fa2adee14722e53	0.036483230586864444
210	0xbfb54f91ab8ccd86	-0.08324537695152942
211	0x3f843362b2718023	0.009863635130557274
212	0x3f98c8284424badc	0.024201039466045113
213	0xbfd19104b7e4b59f	-0.2744762225946377
214	0xbf70b8ef503574e6	-0.0040826175857919585
215	0x3fa0095ba8309431	0.03132139614198371
216	0x3f9508b560d177d7	0.02054103282386407
217	0xbfc327096329d8a6	-0.14962880460706635
218	0x3fad09d00a7c5aeb	0.05671548965454128
219	0xbfb656b8a9fa570a	-0.08726076269007535
220	0x3fd83cda097f4a69	0.37871409347022805
221	0x3fc08ba24d35faa5	0.12926129121838872
222	0xbfa0402f51428c74	-0.03173969141905611
223	0xbfc800031d7aeafe	-0.1875003713556324
224	0xbfc9c4708aea44be	-0.2013073614403193
225	0xbfb61e1f60701565	-0.08639713386954424
226	0x3fbee4197b0ea558	0.1206680226738589
227	0x3fb611e0f5db871d	0.08621030809765924
228	0xbf718031f38c9b43	-0.004272647020832579
229	0xbf9b541b30a2cace	-0.02668802723264712
230	0x3fb9ad15d65daeac	0.10029732211631409
231	0x3f619949d798024b	0.0021482889394522134
232	0x3fb426b6b26b6b29	0.07871572357127533
233	0x3fb276cdc9242061	0.07212530289337017
234	0xbfbd045bcc794a05	-0.1133477567866877
235	0xbfbee05b856252bc	-0.12061092382857458
236	0x3fa9d0e5ce008626	0.050421887776121374
237	0xbfacdbaf49c5df57	-0.05636356139706205
238	0x3fa0e5c1499aff12	0.033002891764679756
239	0x3fa110406816d89e	0.033327114778715514
240	0x3f9005f88ef2b89b	0.01564777729498044
241	0x3fc39bd66e0f0b5f	0.1531932866474461
242	0x3f59dac312970c50	0.0015780358320263317
243	0xbf955ca3aa432e06	-0.020861203448289366
244	0xbfb7f2ccfec18a27	-0.09354859561566596
245	0x3fbd84d993392313	0.11530837864223668
246	0x3fb97a2ceeac31f7	0.0995205004402989
247	0x3fbcd7b4c2d13a10	0.11266641384393261
248	0xbfb2fefa95563d05	-0.07420316835326808
249	0x3fb65f00c9ec2452	0.08738713197466666
250	0xbf8351a74ee13bcb	-0.009433085531922366
251	0x3fc3f0a6a4b207f6	0.15578158418435323
252	0x3fbeb44ea9e083b4	0.11993877074611597
253	0x3facdde8cf65b7ad	0.05638053447442757
254	0x3f9c0b9293589b7c	0.027387895816129312
255	0xbfc4fafe1f05c749	-0.16390968813680676
