trained_model/weights2.npy (npy, 32896 bytes, 1 tensors)

array f8 [64, 64]
00000000: 80c1 9c07 a0a3 9fbf 19e8 9fca e360 c8bf
00000010: fdc2 90a9 2874 9abf 8d55 1d60 b156 bdbf
00000020: e7e6 72c4 02c5 9dbf 0915 394e e173 86bf
00000030: 9469 ab82 39b1 ca3f 6a58 010b 979e b2bf
00000040: 6fc6 f4f4 fbe0 c0bf 1905 3b64 f324 bfbf
00000050: 8866 e5ff 82ac bdbf fd7c 0df8 23cd 983f
00000060: a417 224e 3197 ab3f 08b7 ddef 8291 c0bf
00000070: b358 3461 707c c23f 8846 a094 c077 a9bf
00000080: 8c4b 445a 7e7f b4bf 7194 be57 8bc7 9abf
00000090: 6dcc 86d6 7142 a43f d026 3f93 ad0f aa3f
000000a0: 0e8d 33e2 221b b5bf 0615 1dc6 be44 bfbf
000000b0: 6104 be30 09c5 c7bf f88a 9ab6 2157 b33f
000000c0: 0b09 b702 76d8 bdbf f4c6 9b2d 75e9 a3bf
000000d0: e7ae 40b9 1469 90bf 6be1 1c79 f0b8 bbbf
000000e0: b1e4 5b6e 4991 d0bf 8b26 6769 21d6 89bf
000000f0: 0b64 c7b9 473f b9bf 55fe 97bb cccc b83f
00000100: 4497 d312 f72c a03f f0ea 2513 a72e c5bf
00000110: 57bb 4d0d 5e28 9a3f f0e3 9d97 2e04 c43f
00000120: d713 988e 0b47 a93f c818 4c01 2aea c53f
00000130: 3a68 44d1 13f4 8fbf 801e ec44 ba56 ad3f
00000140: 32e2 0365 56a9 bebf e5c8 5249 f332 ab3f
00000150: c4d3 3119 0246 c43f 08fa 69a6 0111 bcbf
00000160: a1e9 0a13 5726 ba3f 4666 7191 c501 ac3f
00000170: 3b0c 2d4e 0c07 c43f a9fa 2f85 4272 bbbf
00000180: 4043 5dd4 b2a7 ad3f c4fb 000f c245 b23f
00000190: db33 d223 0e7c b03f d6a0 2a72 7c42 ac3f
000001a0: 88fe 3cb4 3966 bdbf 9b43 05c1 f7d9 a8bf
000001b0: 0dd6 d738 7890 b1bf bbb5 4e76 d438 a0bf
000001c0: c79a bb3f dbfe bf3f 2620 1ec7 d763 c0bf
000001d0: 99c1 559a 98c5 b1bf 476a 8ac0 de2f 98bf
000001e0: 8a36 2996 da72 b5bf 5314 ffbf e31a 87bf
000001f0: b580 8192 9000 c9bf 943e 9c74 ca3c c53f
00000200: 7aa5 2351 d2ad b33f 08d9 9298 5f2d 9c3f
00000210: 4326 6374 f4d3 8d3f df3e 4495 62ba 85bf
00000220: 5300 502f 6821 b9bf 4f40 126c d607 ac3f
00000230: 7b86 33db 59ea bbbf 7204 9aa8 0c53 81bf
00000240: dbad f5ab dfda ad3f 5c1e abbe 4783 b23f
00000250: cf28 1313 e8dd b5bf 68de 32e9 6faf a73f
00000260: 96c4 fe0b 2e23 cabf 04ad 2a27 336d 7d3f
00000270: 1e3d f1db fe71 b13f 0c72 b296 b3b2 943f
00000280: d56f 6e9e d832 adbf 3a86 2f23 20e1 953f
00000290: 23dc 86d0 4620 873f d769 03ae 85e7 b1bf
000002a0: 5ed8 8293 6485 c0bf 4216 e2d2 2b31 87bf
000002b0: e6d8 a898 4708 a9bf 12d7 4c67 55d7 7f3f
000002c0: ea7a e08a b95b b6bf bdca f6dc ce88 b73f
000002d0: a10f abde 72f5 aa3f 2955 d42a d607 983f
000002e0: 8ac4 aa81 cea2 abbf f99c aed3 691e 91bf
000002f0: d524 b345 3d5a 9bbf d1fa 0244 7076 7a3f
00000300: 1642 67ee 08a8 a73f 805a 3fd9 1f28 9bbf
00000310: cd80 52b0 64df 8cbf 46b7 62a4 dcc0 a13f
00000320: 766d 30aa 8e3c 97bf b650 2fa5 268d b63f
00000330: 2d56 a9b4 e01c adbf 8172 a120 a0b4 98bf
00000340: 51f1 a223 c8b1 833f 6da3 8f77 95a8 c3bf
00000350: 6c2f cc12 fe0f ab3f 9d82 7016 b06a b6bf
00000360: 076f 8f7c ab43 b73f 79e5 333b 4cbf b13f
00000370: ff5e fc5d 1b66 bdbf 827a 273b b2f8 a0bf
00000380: d8cd a8ba 9670 abbf 3956 ee77 c37d 8fbf
00000390: da6b e32e a75d 99bf 2b7d 27a4 470b bd3f
000003a0: d0c4 1a8a 7dee b7bf 999c bf7e d635 cdbf
000003b0: a920 e67f ee69 c53f 5989 6c1a 4907 92bf
000003c0: d099 96d6 940c c43f c44d e599 fd06 a6bf
000003d0: 6f58 8190 3ab5 b5bf dfa7 b9b0 a224 b83f
000003e0: 452f 5241 d5f8 b83f 6b1c 653e 0cbd c0bf
000003f0: d14d 8674 e7e4 a43f e2ea a958 62e4 b33f
00000400: 25d5 d2d5 30f2 ce3f 3801 8781 ca04 cfbf
00000410: f68e fdde 54a4 b0bf 3586 6257 15d1 a1bf
00000420: ee48 dccb f5ab a9bf 4e84 c86f 0073 c6bf
00000430: 89a8 9adc 0670 b13f a484 6cd4 31b5 b73f
00000440: cec4 fdbf f672 bc3f 2af7 8933 2b81 c53f
00000450: 1271 ec6a 6320 c3bf 3258 cdf9 acab a13f
00000460: af2f ec07 37d6 bdbf 9052 69c0 c519 b93f
00000470: 4b9c bc80 88b0 b2bf 66a2 5f6e a95e be3f
00000480: 3d91 b619 4052 b5bf 4d64 7b4b 7972 b4bf
00000490: 03a0 44ed 73fa a0bf b5b0 5b93 ef1c a8bf
000004a0: 509e 45c1 3817 983f 45ca 596c a6b6 973f
000004b0: 122e a440 ce1b b3bf 46fd ac7f c95e 79bf
000004c0: 3735 9c9d 46a3 9bbf a9c4 796a e8ce 9a3f
000004d0: bcee 4ee3 b4c8 b9bf 1217 947c 7438 8ebf
000004e0: 920c 3824 ff2d d23f 093e d131 fe3a b93f
000004f0: a34c 772c ae49 c5bf f758 36c6 1adb b43f
00000500: be6e 6d0d 2d6b ac3f c2d2 2355 6554 b3bf
00000510: 609b 0807 65db b93f 8c76 c40f 6976 3e3f
00000520: c666 a8c4 7ad4 c6bf 32e1 bad7 b247 cabf
00000530: 8a8f 71ce 8816 bebf 1fe1 3569 dfbc cc3f
00000540: ff54 5e8a 0061 b4bf d77c 3cba 75d2 cfbf
00000550: 2731 b434 f1dc 933f c4e9 096a 3d22 963f
00000560: 7420 9314 0446 c03f d758 45ee 135b b53f
00000570: cd71 fad9 bcd7 6fbf 2db9 4777 fcb6 b33f
00000580: f188 6626 9955 a13f 3501 dcc7 be68 d8bf
00000590: 87f3 7d31 68cf b5bf 2c94 2f56 33b4 bdbf
000005a0: f0e9 d437 cfd8 c8bf 8835 dd62 729d 84bf
000005b0: 5818 c41d 2a02 623f f9a8 c3d4 76f8 c7bf
000005c0: a687 0a34 d39d c3bf 461d 79c9 e221 d1bf
000005d0: 775b 0d78 7d47 c2bf 4352 6ae0 9adb 96bf
000005e0: 7e5e a43f 52c5 b9bf 901b eb48 2484 c7bf
000005f0: eb9e a8a1 ce67 b6bf d368 25c6 8cd3 863f
00000600: 23d0 4535 c549 b7bf 3d13 a18f c367 b93f
00000610: c033 cee0 f665 b6bf f398 ce33 f207 c4bf
00000620: 17ad 713f ca57 9d3f 8a3f 526e fb36 bebf
00000630: e3df e8c1 e482 b6bf a393 cd17 cdfc b8bf
00000640: 8812 bad8 d0ef a0bf 0117 d085 d69a a2bf
00000650: 1d5b 640e 7950 c83f c76e cb1d 45f3 c4bf
00000660: a14d 0287 5d28 bfbf cd93 6c7b 93b4 9b3f
00000670: 176e de93 4673 a8bf a0f5 a4b6 1705 a33f
00000680: f2cc f251 96ad 9e3f 83a5 c945 956a 6a3f
00000690: ee92 ed0b e839 973f 51ff 3d57 89ec b33f
000006a0: 1b9a cfe5 8773 cbbf b45c da16 5daa c43f
000006b0: 5e41 2fdb aa8d 823f 1cc9 a3ef c2e6 b0bf
000006c0: b175 fb80 1657 873f 83e3 107a 25e6 79bf
000006d0: aa73 f0ef 85e0 cfbf a05f 09a6 4a58 b0bf
000006e0: 41f0 bd73 5430 c9bf 7dd1 a016 0428 bbbf
000006f0: d885 7ba7 5fba c43f 0bf0 ac22 af74 913f
00000700: bef9 a2eb 413e 8f3f c786 2b90 d0f8 883f
00000710: 9474 63be b6f3 af3f 6c14 2cca 7562 b1bf
00000720: 2bbf fc2d 42ea 50bf 620f ab24 6ee3 c83f
00000730: bc45 324c 8a43 ba3f 1e86 14bb 1fbc c03f
00000740: 38f7 5b1c 8e08 ad3f db9b 14ea 595f c13f
00000750: d735 3670 3039 7b3f c1db bfcc 98b3 b7bf
00000760: 321d 0ee4 5e8a c2bf 9bb4 3565 409d c03f
00000770: 69c4 799c f511 cf3f 665f b554 2f75 a0bf
00000780: f728 c39f 467b acbf 8da1 8995 6581 c13f
00000790: 00dd 4596 c4d9 93bf 1eb8 2643 8caa bcbf
000007a0: 57c8 2ac7 039b b0bf eaec a118 4403 c23f
000007b0: e59e 5419 9be2 b33f c053 43f5 fe62 963f
000007c0: 5f94 a1c1 2ca4 b5bf 3ac4 0268 5017 8dbf
000007d0: 7fb5 a39e ceb9 abbf e160 e222 9cf8 c0bf
000007e0: b2dc 86d1 cf15 92bf efaa 8650 8083 713f
000007f0: ab73 6043 ddb1 c43f 396b 4d00 b5f5 be3f
-0.030897617783183673 -0.19045684236317653 -0.025833735799269942 -0.11460407825992132 -0.029071849098477733 -0.010963211249996012 0.2085334671053941 -0.07273239153559677
-0.13186597309827472 -0.12165757367167308 -0.11591356990302348 0.024220048918661686 0.053887882983914254 -0.12944065773211144 0.14442257639229225 -0.04974176229746968
-0.08007039741305116 -0.02615182612466466 0.03956943267567046 0.05090086386151216 -0.08244531652922069 -0.1221427186656748 -0.18570055847161185 0.07554827411744813
-0.11658418241771444 -0.038890516107029344 -0.01602585201923903 -0.10829070050102067 -0.2588676049923136 -0.012615452794210632 -0.0986218288957305 0.09687499599385181
0.031593056724700946 -0.16548622546164138 0.025544614374150978 0.15637762454187465 0.049370156437397554 0.1712086206754917 -0.015602259467915148 0.05730230418526805
-0.11977138487044028 0.053123095226867346 0.15838648061949645 -0.10963449776497936 0.10214752402217765 0.054701017383831416 0.15646508996187145 -0.10721221686979256
0.05792006342256295 0.07137692323975303 0.0643929326490275 0.05519474881777035 -0.11484108591411701 -0.04853796225746195 -0.06861068141719091 -0.03168357795889728
0.12498255067803675 -0.1280469629530227 -0.06942132728523233 -0.023620110036612265 -0.08378378072776563 -0.011281756684079413 -0.1953297343598074 0.16591768926490558
0.07687105637491767 0.02751683586822032 0.014564428140505408 -0.010609407596830987 -0.09816599993792012 0.05474729603986416 -0.10904466249078297 -0.008459185500443864
0.05831049894444692 0.0723156776904203 -0.085417275101608 0.04626035424865621 -0.20419860444738863 0.0071842191852440375 0.06814568395315176 0.020212942192857894
-0.05702855047203995 0.02136659826999774 0.011292031515820316 -0.06993899820682913 -0.12907082750979532 -0.011324255345480986 -0.04889129389305129 0.007773717505917837
-0.08733710899876326 0.0919312753165213 0.05265387504689945 0.023467394222355473 -0.053976491287707054 -0.016717580361412996 -0.02671142328180028 0.00646060804154898
0.046203879453632066 -0.02652024997208935 -0.01409796393483056 0.03467454439792887 -0.02269194520714054 0.08809129269440316 -0.056860944798853154 -0.024126531592957527
0.009616435611285697 -0.15358227098411295 0.052856387896183715 -0.08756542728270707 0.0908763102628961 0.06932522244814789 -0.11483927769256395 -0.03314740154359176
-0.05359335926587122 -0.015376593682769545 -0.024771320568884515 0.11345336682960709 -0.09348282453244683 -0.22820550145045074 0.1672952770716212 -0.017605917203704056
0.1566339538378103 -0.04302208427057111 -0.08479658153496115 0.09430901350574981 0.0975468906855755 -0.13076928183201927 0.040808899854848264 0.0777036158050737
0.2417660755215049 -0.24233371090486755 -0.06500750011542408 -0.03479830447873803 -0.05014007676631303 -0.17538457353751585 0.0681156433662712 0.09260856090669961
0.11112920939719403 0.1680044175772591 -0.1494259140098469 0.03451290654508944 -0.11654991095946231 0.0980495066408571 -0.07300618308055211 0.1186319250551918
-0.08328629138720074 -0.07987173168966528 -0.033160803521525416 -0.04709576295667387 0.02352608375204418 0.023157692301945216 -0.07464303091199323 -0.006193911652018718
-0.026990035409700765 0.026179915903814664 -0.10071878957290442 -0.014756116916497617 0.28405741250043903 0.09855641094440427 -0.16631104632560775 0.08146827067534788
0.05550518788251456 -0.0755065281735581 0.10100394651145228 0.0004648214815164773 -0.17835936167175798 -0.20531306775752395 -0.1175313476574599 0.224513937351511
-0.07960513475548579 -0.24861022561615329 0.019397515146054502 0.02161498985013012 0.12713671688675598 0.08342098776970218 -0.0038870514398025914 0.077010897751937
0.03385618776089128 -0.38139314191359414 -0.0851960297422477 -0.11603089193484156 -0.1941164991965958 -0.01006593097886356 0.0021982977469888025 -0.18727002514726346
-0.1532539371592609 -0.2676932303915759 -0.14280670511172008 -0.022322101542686445 -0.10066713384400747 -0.18372014580219487 -0.08752147146935456 0.011145686909618402
-0.09096939612010195 0.09923956162044774 -0.08749335277953119 -0.15649249581947053 0.02865520488960013 -0.11802646106138873 -0.08793477758524619 -0.09760743933800468
-0.03307964940635083 -0.03633757003266958 0.18995583727584 -0.1636740107995733 -0.12170967622869579 0.02705603066273792 -0.04775448374786267 0.03714822868867462
0.029959057571159194 0.003224650905668981 0.02268183300783993 0.07782801036773647 -0.21446322175252494 0.16144908538692493 0.00905927163503922 -0.06602114058094738
0.01139657574770578 -0.006323000329808151 -0.24903940406593722 -0.0638472228396254 -0.1967874112268664 -0.10607934524961667 0.16193767240387902 0.017046677104403368
0.015255465510901508 0.012193326377601633 0.06240626405790653 -0.06790863214344406 -0.001032414082100484 0.19444062033118842 0.1025930820490179 0.13074108729146955
0.05670589538747922 0.13572238855087346 0.0066463367578654875 -0.09258418082013888 -0.14484773765091458 0.12979893628963599 0.24273557796871906 -0.03214404973067424
-0.05562802028869556 0.13676137735025087 -0.019385406181268827 -0.1119773544257616 -0.06486533749083044 0.14072467043647602 0.07767648094579334 0.021862014503159832
-0.08453635909389011 -0.014204624342115325 -0.054151970734760184 -0.13258697226843366 -0.01766133037901047 0.004275799969415613 0.16167798795586683 0.12093669183142887
