trained_model/weights2.npy (npy, 32896 bytes, 1 tensors)

array f8 [64, 64]
000000 e1 71 58 05 85 bf 9a bf 7d 90 37 e2 97 e0 c9 bf
       -0.02612121434332149 -0.20216654344324417
000010 0c 15 8c 23 47 35 98 bf 40 4b ff 68 ac 59 b9 bf
       -0.023640739006642028 -0.0990245586720393
000020 a1 19 8f 6e 2d 8b a5 bf fe b5 85 19 31 e5 94 bf
       -0.042077464815110995 -0.020405547316320487
000030 46 4a ad 81 e2 04 ca 3f 94 fc 35 92 03 7c af bf
       0.20327407199745745 -0.06149302635002943
000040 e6 85 3d 38 97 ac c2 bf 1e 05 ea 94 a9 2f be bf
       -0.14589205022916402 -0.11791477094267974
000050 19 28 8d 5c 1f 88 c0 bf 07 bb d4 09 81 90 ac 3f
       -0.12915412921057692 0.055789978456564575
000060 a4 93 c9 c9 3f 5b ac 3f 17 ce d1 2f 67 4c c0 bf
       0.05538367593980034 -0.12733163676203738
000070 17 02 2c 1f 99 0a c1 3f b4 82 32 d8 55 c5 a5 bf
       0.13313592931810156 -0.04252117408873826
000080 ea aa d5 10 cf f3 b5 bf b5 b8 01 05 26 53 a1 bf
       -0.08575147782327588 -0.033837497817203945
000090 f3 6e 16 ee 74 3e 5e bf ab 1e 8d 63 84 c2 a4 3f
       -0.001845945538980706 0.04054654803490839
0000a0 f6 a8 ee 04 91 a0 b9 bf 20 40 79 51 3c be c0 bf
       -0.10010630007187502 -0.13080553034024067
0000b0 0e 58 55 78 26 d5 cb bf 28 70 9d de c3 cc b1 3f
       -0.21744233012822217 0.06953071770607322
0000c0 6b 82 43 08 76 73 bf bf 0c 37 18 5b 20 0c b1 bf
       -0.12285554601431563 -0.06659128402699482
0000d0 97 c3 5a 7b 25 3c 83 bf b8 87 a4 6b 24 e9 bd bf
       -0.009392063929540657 -0.11683871868129259
0000e0 61 7b 68 44 6b e1 ce bf e0 07 e1 af cb 59 7a 3f
       -0.24125424232712603 0.006433292057467427
0000f0 85 53 b1 3d cc d4 ba bf 8c 91 4b 57 37 b4 bb 3f
       -0.10480953699273073 0.10821863061170783
000100 c1 68 61 36 36 66 a9 3f 4f 90 a7 ba e1 a9 c4 bf
       0.04960793889832039 -0.16143437971106997
000110 62 b3 4e 3a 37 17 9a 3f 9a 90 1f d6 02 14 c4 3f
       0.02547918599491384 0.1568606896900107
000120 df 95 c4 0d 4c ee 6f 3f d1 ca ac ca 0e a6 c4 3f
       0.0038978085923584284 0.16131768127669102
000130 14 31 f4 8c 9f 25 85 bf e1 a1 9a 4d 47 27 ae 3f
       -0.01032566689402662 0.058893421385906704
000140 17 ad d3 9e 77 07 bf bf 62 d2 26 24 8e da a3 3f
       -0.12120769145592579 0.03877681914619725
000150 64 5a f9 0a df 90 c0 3f 94 fd 30 d1 f8 03 be bf
       0.12942112003175332 -0.11724810702525296
000160 4e 56 5c 22 04 36 b9 3f 35 dd 19 9c ad 53 ab 3f
       0.09848047102817611 0.05337278872041865
000170 58 f0 f5 c6 83 49 c4 3f a1 74 fe c8 13 19 b6 bf
       0.1584934922683512 -0.08632014901236797
000180 11 d0 60 01 8a 73 a0 3f 9b 41 02 f0 7f 27 b0 3f
       0.03213149325202392 0.06310271844473052
000190 a8 b6 48 30 96 10 af 3f 1f 44 87 2a 99 ec a1 3f
       0.060673421281859874 0.035008226815655734
0001a0 2c b9 ef ef ee b6 bf bf 9e 72 41 1b ea 1d b4 bf
       -0.12388509137938247 -0.07858145871564168
0001b0 c3 04 7b c2 90 49 a8 bf a5 5e dd 0a 69 f5 a3 bf
       -0.047436259975719895 -0.03898170716882746
0001c0 31 56 ae 51 87 52 bf 3f 05 0a a9 de 1c b3 c2 bf
       0.1223530363480101 -0.1460910880287686
0001d0 da a0 67 5a 1c 0f af bf 15 3b 9c bb 90 45 97 bf
       -0.06066216090749928 -0.0227263082988954
0001e0 e4 4f 6a c9 ae ed b4 bf c3 91 db 1a 41 b3 8f bf
       -0.08175175111165306 -0.015478619224673978
0001f0 c1 e3 59 38 b0 3e c6 bf 57 2a fa 68 43 0a c5 3f
       -0.17378809691925137 0.16437571168747198
000200 05 ac 7c 2e c3 2f b4 3f 08 93 78 ef 43 ec 99 3f
       0.07885379681526679 0.025315343371533877
000210 c5 8f 07 e4 25 a5 94 3f 16 ab 9b 4a 42 73 80 bf
       0.020161239664858294 -0.008032339002473726
000220 4d 2e 26 5b 35 b5 b9 bf 00 13 29 7d ec 4d a9 3f
       -0.10042127108879946 0.04942263629758337
000230 a0 39 21 b4 42 ed bc bf 48 75 28 70 ff d8 40 3f
       -0.11299530885410158 0.0005141494041855177
000240 e8 a0 62 86 3b c4 aa 3f 43 69 2f 1a 1b 66 b1 3f
       0.052278385309650066 0.06796426190650089
000250 b3 18 72 96 47 d1 b4 bf 64 2a 06 21 a2 54 aa 3f
       -0.08131835387220825 0.05142695096136121
000260 33 c4 19 81 5e bc ca bf c1 7e e6 2c 20 aa 89 3f
       -0.20887357047789265 0.01253152024293003
000270 e9 66 e2 8b 46 73 b1 3f e8 8a db 8d af 4a 97 3f
       0.06816521563669266 0.02274584105806357
000280 c2 00 f8 bf ed b9 ad bf 0b e0 f4 b4 46 bf 8f 3f
       -0.05805914848679229 0.015501549146037538
000290 f4 2c 4f 3d 0e e9 6d 3f 20 34 89 ec df e0 b1 bf
       0.0036511686434771377 -0.06983756565860277
0002a0 ad db 28 c8 38 97 c1 bf 20 f3 d8 f9 de a2 87 bf
       -0.13742742322366777 -0.011541120528926252
0002b0 20 96 f2 49 57 9c ad bf 70 71 3e 2f 34 3d 77 3f
       -0.05783341195755676 0.005673602910885797
0002c0 8f 08 bb 56 46 16 b8 bf 25 7d 02 0e ae 31 b5 3f
       -0.09408988587805055 0.08278930513414602
0002d0 8c 72 69 1e 8d 94 ab 3f dc 03 1e 29 54 9f 92 3f
       0.05386773105849327 0.018185915956113394
0002e0 52 5c 14 57 ce 85 ab bf 09 d0 70 c9 0e d9 85 bf
       -0.053755233888460055 -0.010667911074143903
0002f0 ff 38 cb 87 a4 7d 9c bf b7 18 fc c5 38 f4 7b 3f
       -0.027823038852880618 0.006824704905517168
000300 72 75 60 0c 91 58 a6 3f 67 5b 93 40 fc 84 9b bf
       0.04364445949634445 -0.02687448639047876
000310 45 d7 b1 d2 81 d9 88 bf 4a 12 7a a8 7e 42 a2 3f
       -0.01213361191023988 0.03566356474496908
000320 1f 86 ac b6 79 f5 9e bf aa 3c f1 e2 07 6b b5 3f
       -0.030233289503604262 0.08366441050133014
000330 25 a5 74 21 87 51 ad bf 0e 3b 0c e4 3a fd 91 bf
       -0.05726263316530326 -0.01756755844967999
000340 2b d5 3a 7d c1 a5 6c 3f e2 65 12 2a 43 be c3 bf
       0.0034970072827841445 -0.1542438464573897
000350 12 ee c2 5d a6 4c a9 3f e8 6e 0f ae a3 c7 b6 bf
       0.04941291708516017 -0.08898375510710432
000360 98 46 1b 20 a8 a4 b4 3f a0 0d 75 b5 1e 98 ad 3f
       0.08063746246196002 0.057801208162824524
000370 47 f0 f5 c8 e9 ac bd bf 00 8e 6f 06 cb f7 a0 bf
       -0.11591969639079124 -0.03314051106988458
000380 35 66 c6 98 ff 54 ac bf 98 7a 9a b7 f0 52 94 bf
       -0.05533598651818431 -0.019847642141594152
000390 2a 32 71 c8 8d c9 9a bf e6 2c ab 6b 4f 1d bb 3f
       -0.02615949188138892 0.10591598871831173
0003a0 04 d7 3b 48 1e 80 b6 bf 1a a3 3c 64 36 89 cd bf
       -0.08789242995757368 -0.23074989218118774
0003b0 e6 d8 8e 5f b0 90 c5 3f 5c ef 31 1f db 9d 7b bf
       0.16847805658262088 -0.0067423400351989925
0003c0 8b b6 d4 5c b2 ab c4 3f ee fa cb 56 64 8d a7 bf
       0.16148976834067627 -0.04600060996562215
0003d0 63 2d 69 09 a0 e9 b5 bf 28 58 f9 91 ae fe b7 3f
       -0.08559608678586055 0.09372988761728662
0003e0 24 ab 5a bf 20 ec b7 3f 67 74 5c 59 6e 9e c0 bf
       0.09344677612049829 -0.12983493197762927
0003f0 90 1a ec ed 14 ff a5 3f 77 f8 cb 8a cd 78 b3 3f
       0.042961744349715336 0.07606205595581793
000400 b0 e4 2e 55 ba b8 d0 3f 3a 5a cc a6 26 2a cf bf
       0.2612748939387286 -0.24347384590574156
000410 56 85 ef c0 d6 54 b0 bf ac 9f 1f e7 f4 b0 a7 bf
       -0.06379453859655845 -0.04627194711048274
000420 93 63 23 45 b8 9b a7 bf a3 54 f9 31 98 71 c6 bf
       -0.04610992282841333 -0.17534162941106954
000430 8a 30 fe a4 2e e0 b2 3f 4a db c3 2b db 5d b3 3f
       0.07373324897906933 0.07565088098986653
000440 02 bf d6 98 e1 14 c0 3f a4 1f 96 46 6d 9d c7 3f
       0.12563724482378552 0.18449178644754938
000450 d2 81 5c 21 62 c1 c3 bf a7 dc 0b 4b d0 45 97 3f
       -0.1543390906235929 0.022727255421128103
000460 e6 2c bf b4 a0 34 bb bf f6 11 45 b5 4f f8 b8 3f
       -0.10627178585780292 0.0975389306596027
000470 65 6b 9c 01 af 08 b4 bf 77 04 db 3f 1c 70 bf 3f
       -0.07825750150042905 0.12280441817257946
000480 7c 0c c5 cb f4 41 b2 bf 0c 4c 7a 55 c0 07 b5 bf
       -0.07131891226622317 -0.08214952551706761
000490 2b be 4a a2 84 fa 99 bf af 4d 34 a3 0e af ac bf
       -0.02536971321631946 -0.05602308027496449
0004a0 1b 82 dc 85 f7 7f a9 3f 03 ae 77 96 04 79 9b 3f
       0.049804434862611845 0.026828834232146558
0004b0 60 42 0a 1d 97 34 b2 bf bd 3e 12 f3 2e e9 8d bf
       -0.07111496409403051 -0.014604918282457796
0004c0 cd 93 89 86 38 cb 96 bf 2c 9b 44 29 02 f4 aa 3f
       -0.02225960084105676 0.05264288667449643
0004d0 8c bd ab 53 b6 c3 b5 bf 34 c9 f6 e7 c1 fe 76 bf
       -0.08501758139367704 -0.0056140493829153655
0004e0 67 ed 4b 11 d8 ab d3 3f ca 56 dc a2 ea bc b5 3f
       0.3073635262405418 0.08491388774958888
0004f0 38 fd c6 95 d9 a2 c6 bf 6f 74 23 85 2f 2c b5 3f
       -0.17684478581757346 0.08270546913577602
000500 af 95 97 db e0 28 aa 3f e6 0e 3a 4a ef fc b1 bf
       0.051093127065353065 -0.07026572763612257
000510 e9 6a 35 b9 35 62 b4 3f 15 ac 17 10 c1 24 89 3f
       0.07962356349655021 0.01227713423118896
000520 96 70 08 58 fb d2 c7 bf eb f0 26 c3 e9 38 c9 bf
       -0.18612615393147242 -0.19704935101424978
000530 99 0e 30 61 c1 74 bd bf 5a 0e 1e 7b 97 c0 cc 3f
       -0.11506279585597169 0.22462743293373216
000540 28 54 5e 2e 8d a6 b3 bf d0 0b 9f 68 cf c0 cf bf
       -0.07676012403528942 -0.24807160004101414
000550 42 a0 5c ef fb 60 9a 3f bf a7 6e c7 34 40 9a 3f
       0.02576059006165133 0.025635552093866695
000560 45 59 c2 30 24 61 c0 3f 9e 66 e0 8e 42 22 b8 3f
       0.12796451931780886 0.09427276600072296
000570 2c 60 ca f3 8f 7d 84 bf 8d 58 92 99 7a 4a b4 3f
       -0.010005116107365174 0.0792614579134769
000580 ea 04 41 ac bf ec a2 3f 50 39 12 3b 61 15 d8 bf
       0.03696249940595371 -0.37630491989775283
000590 95 84 85 46 03 8d b6 bf d5 35 f7 88 26 16 be bf
       -0.0880891844913257 -0.11752549022568044
0005a0 5c 2b 5c 9c 4f 52 c9 bf 95 1f 50 9f 55 d8 66 bf
       -0.19782443175094044 -0.0027887031851640634
0005b0 ca 72 3c 1b ea 4b 64 3f 5f 29 1c 5b da 7a ca bf
       0.0024776050939990567 -0.20687417458277488
0005c0 d9 d0 b4 28 92 f5 c3 bf 36 98 cd c3 85 49 d1 bf
       -0.15593173015225295 -0.27011245843312126
0005d0 b1 a1 92 7b 6a 86 c2 bf 04 05 68 b0 a3 ff 98 bf
       -0.14472704919650206 -0.02441268696020861
0005e0 60 98 04 92 2f ce b9 bf b9 94 4f b3 60 d1 c7 bf
       -0.10080239596263274 -0.1860772014180492
0005f0 83 c9 4c e7 3f 37 b6 bf 47 1e f2 2a 8d 4b 81 3f
       -0.08678054234477454 0.008444884179211644
000600 fb 5d ff ec 3f f9 bb bf 61 0a 2d bc 2a 3c b6 3f
       -0.10927199874947029 0.08685557455195571
000610 42 73 6e a1 40 f8 ba bf 1e 23 30 96 f5 6e be bf
       -0.10535053197095315 -0.11888060490322203
000620 31 44 a6 a3 f1 5c 77 3f 13 44 fd 15 5e 8a c1 bf
       0.005703872588484636 -0.13703514169404282
000630 fe 9a c1 f3 53 0a b7 bf c8 fe 23 82 06 31 b8 bf
       -0.09000134183007089 -0.0944980685926523
000640 e9 86 ba 9d 0d 6e a8 bf 34 28 91 80 6d 8e 95 bf
       -0.04771463919065672 -0.021051131221874367
000650 b4 f4 d8 e2 36 ce c2 3f fa 32 7a 9a f4 b3 b6 bf
       0.1469181640294771 -0.08868340274257128
000660 29 7a 43 cf 9b f2 ba bf 56 1b 5d 8d 2b cf 7f 3f
       -0.10526441393037857 0.0077659322030914826
000670 b1 a5 53 07 fe e4 b4 bf 5c 79 40 38 a0 d4 a2 3f
       -0.08161914519191417 0.03677845656078446
000680 94 73 65 b9 d2 69 89 3f ab 33 2e 18 a1 ac 84 3f
       0.012408872874112999 0.010094889212064325
000690 d2 8e 0e 12 4c 3b a9 bf ea c1 4d 04 47 18 a8 3f
       -0.04928052635594117 0.04706022193466082
0006a0 01 3a e0 b4 eb 1e d0 bf df 40 48 70 91 f4 c0 3f
       -0.25188725150738384 0.13246362669497722
0006b0 5e 36 3b 7f 1a a1 a9 bf a1 15 54 26 c0 ea af bf
       -0.05005724719158587 -0.062337879828230365
0006c0 8d 33 95 13 78 89 93 3f e1 bf 8b 11 8f dc b0 bf
       0.019079090304603908 -0.06586546114317528
0006d0 39 4f c5 3d 61 73 cf bf ca 69 4f 88 36 3a b3 bf
       -0.24570861354970377 -0.07510701015363633
0006e0 a9 1b a1 9d 75 b9 c7 bf 74 a0 8f c7 60 ea b5 bf
       -0.18534727284187838 -0.08560757515044931
0006f0 1e 4d e7 60 03 bf c6 3f 1d 6b d0 f7 f6 d2 a2 3f
       0.17770426017396174 0.036765783072232085
000700 8f d2 51 53 30 56 b2 3f 56 83 b2 a8 d9 ed 8d 3f
       0.07162763628168477 0.014613819561704194
000710 fb 55 07 bf 03 75 ac 3f d3 40 2b ae 7e 6e b6 bf
       0.055580250805785845 -0.08762351753398727
000720 58 26 07 9a f4 91 b6 bf 16 69 a2 69 47 2c c9 3f
       -0.0881646038098095 0.19666378648691624
000730 a8 29 06 c9 7b 6d bf 3f 1b f0 67 89 9b 5a b9 3f
       0.12276433618368421 0.09903881172789435
000740 55 be 80 9e bf 20 b4 3f 50 ed db 8e 2b 06 b9 3f
       0.07862470264148531 0.09775039899607418
000750 1d 4d 57 69 e0 a5 ad bf e4 5a e2 15 40 04 bf bf
       -0.057906163081179886 -0.12115860494882785
000760 99 c7 88 04 62 7f bb bf a0 2b 13 13 36 d2 c4 3f
       -0.10741245852184846 0.16266513759032097
000770 5c 58 44 fc 7f ad d1 3f 14 d1 5b 58 ef e5 93 3f
       0.2762145961327229 0.019431819694504318
000780 a0 58 a5 09 54 00 c0 bf 3c 63 88 7f 65 39 c1 3f
       -0.12501001807203682 0.13456410147844078
000790 67 ce 45 a1 2b 36 94 bf 88 b3 cf 7a 46 44 c2 bf
       -0.019737893789580598 -0.14270859715125206
0007a0 b9 a7 eb ff 40 d1 bd bf 0a 77 93 fb 08 94 ae 3f
       -0.11647421119746938 0.0597231680965092
0007b0 1a 99 42 b3 6e 39 c1 3f 75 6e 15 50 cc d8 94 bf
       0.13456519844948717 -0.02035826910774437
0007c0 aa 38 ee 86 59 7e bd bf 5b 32 aa ad a3 5d a5 bf
       -0.11520919365122731 -0.04173003668720262
0007d0 99 de 71 8c 77 9b 95 bf 08 60 74 d8 ce a1 bf bf
       -0.021100871989317403 -0.12356274399314782
0007e0 8e 24 ab 27 a2 26 85 3f 96 c5 18 31 03 f2 87 bf
       0.010327593646609647 -0.011692070899786338
0007f0 72 34 3e 2b 86 88 c9 3f 64 41 c9 60 ca f8 c0 3f
       0.19947888480638515 0.13259248472105434
