trained_model/weights1.npy (npy, 460928 bytes, 1 tensors)

array f8 [900, 64]
00000000: 2c59 0cd9 6f55 b23f c39e d5d0 d471 c0bf
00000010: 3085 f890 7f5b b1bf 7d5e b0d5 e550 b03f
00000020: 55c5 7d58 0f67 b3bf 1cee 502f 4e64 b4bf
00000030: 8400 c53c e74d b0bf fe3c c45b 9216 913f
00000040: fcb1 3047 4708 8fbf c050 db6c 98cc c03f
00000050: 5382 d1da f202 d5bf 9a61 eb37 d632 873f
00000060: ef35 70c1 c59b a2bf a3ee ec55 c952 bf3f
00000070: 6f08 13bd 54eb a33f b884 4d1e 26ee 9ebf
00000080: 9804 3f86 75d2 c4bf 2425 4c20 244b 9abf
00000090: 1455 4376 a35a 97bf 5b7b 6f8d 4284 b03f
000000a0: 3189 14dd 4025 c93f 7f4f a3ea 6318 b03f
000000b0: cbe8 b42b efc5 b3bf 2d5d c61e 7786 a33f
000000c0: 8d3e dd7f 7255 c9bf cb45 ae9c 9428 bc3f
000000d0: cafd 4365 3abc 953f 73d2 019d 1aa9 b03f
000000e0: c576 bd34 8b0c bb3f 3ce4 0e21 68e8 92bf
000000f0: 8ffe 892b d2b4 a1bf a519 4ddf fec5 843f
00000100: 7fc4 a452 1722 923f ad51 5f9e a38f b5bf
00000110: da1c 129a ec9f c9bf 8a05 7605 1a7d 92bf
00000120: 9155 d7b9 556d a33f 4fcd 4727 ed74 9dbf
00000130: 769a be95 62fd b03f fa4a 85cc f9bb 9abf
00000140: ecba 63ad aecf c53f 0486 b9d5 c919 743f
00000150: f621 2e66 bd02 a9bf 4140 ab04 d6b9 ba3f
00000160: b6da d3de e6b6 b03f 6d98 723c 89bd a03f
00000170: cdf9 eacb f94e bdbf f1f1 2ad7 af8a b9bf
00000180: 30eb 15d7 0098 cb3f 21f7 848a 7100 933f
00000190: ec64 5f2f 3f72 c0bf 4fb0 7ce6 e874 c6bf
000001a0: ec5b 07be 2355 ab3f 180e fdcf 54a6 afbf
000001b0: d2d9 95d8 01f1 aabf 57f6 3d25 7369 ccbf
000001c0: 689b 6f58 4a6e 6e3f c753 eef6 0a07 933f
000001d0: 8f58 a351 612e b13f a714 52a9 700f a6bf
000001e0: 6ac2 9b6f dd09 b2bf 1af6 d168 1f27 a93f
000001f0: 9d29 ac4a edbe b1bf c67c f291 7a75 aabf
00000200: f860 0393 f0e7 bc3f b69c 0c1a 2923 893f
00000210: 860a 7da7 cdf5 b73f 6069 6a99 0439 bdbf
00000220: 093b 8887 b8e1 a43f f65a e08c 0fde b3bf
00000230: f6f3 ce29 8938 b4bf 26d8 5eb1 c6fe afbf
00000240: a154 cc2f 10d7 afbf 4460 2715 1766 adbf
00000250: ea66 ce8f da1c b3bf 4c0b b404 da88 19bf
00000260: 005f afe3 27cf 91bf acc1 4cd1 c944 b93f
00000270: 3496 3052 6624 b4bf 9084 5548 26e2 b63f
00000280: bbd1 e7a3 5409 95bf 69e4 8af3 060c b03f
00000290: 88eb 136f e124 a93f 3ac6 abf8 74bb c6bf
000002a0: 0695 fb13 ad6d c1bf c744 0f92 4b73 c4bf
000002b0: 4026 03e4 40c5 9a3f e4d2 19d1 3503 b63f
000002c0: f49c 354c 4cab 853f 1e02 b49a c355 b13f
000002d0: 507a d8e7 9863 c6bf fd5f 311b 6c9d 933f
000002e0: faaa 2710 aa3b c8bf 9457 44f7 7cb6 9f3f
000002f0: e584 809c 1949 c1bf f24a 78b8 0c63 c1bf
00000300: e24f 861d a9ef a6bf 6be3 78b0 258c b23f
00000310: 216d b09f 9483 993f 8a26 2e15 af8e c1bf
00000320: f2ad ec13 0bdb c3bf c974 a6f3 5c46 bd3f
00000330: bbfd 2724 3cc3 ba3f 663e b39a ca64 c03f
00000340: 7951 24bf 56db c1bf 0384 5068 8939 b73f
00000350: 99e7 e302 829a c3bf f82c df6c 4878 c43f
00000360: fc29 5046 a8b5 14bf 5246 b480 dccb b9bf
00000370: 4a68 e4e5 36c0 c0bf 03a9 2632 0b9e aebf
00000380: c6e9 db19 e884 b4bf a7a8 5b57 8fef bd3f
00000390: bd6e ab99 ac37 a13f 7dda 7a30 e9cb b9bf
000003a0: 44f0 73c8 3b3f a7bf 852f 4d1c 62b5 9d3f
000003b0: 8310 9380 3c2f bc3f 5586 0c5c b56e a03f
000003c0: 2f84 1a83 f5f8 c9bf 379b 4e9b 26bd a03f
000003d0: cf89 a209 ec82 a2bf dd4d 1fd4 ceb9 c83f
000003e0: e3e9 3918 f90c cabf f82c f238 dbcb c13f
000003f0: 24fc 6a38 6562 b63f 1e23 f601 1019 bc3f
00000400: f518 05c0 0e4a 933f 88ea 6775 f8de c83f
00000410: f964 f3b5 95a2 6cbf d085 ea9c d772 acbf
00000420: f49a 05a9 e175 acbf e0e9 99c1 b91f ad3f
00000430: bd26 3603 05af 7c3f ea0f 36ef 845e cf3f
00000440: 4569 34ed 316a c3bf e1d4 28bd 4ad0 a7bf
00000450: a25a 480c ee62 863f b86b 8453 b6ae a7bf
00000460: 684e e839 a507 9c3f 7f64 bb34 e852 d2bf
00000470: 0483 308f 3499 bebf 3ad3 37f2 0574 883f
00000480: b3a4 f583 0602 b83f 0fd2 2aa8 a3aa c8bf
00000490: 28d8 21fe 999d bdbf d402 6435 c5a5 b43f
000004a0: 772f 931c bb6b b9bf 217b edb1 c33b b63f
000004b0: eec1 2e69 d0ea 573f 56f5 77b7 e20b c13f
000004c0: 9bfe d755 7311 c3bf 5f0f 4e2c 1e3c 703f
000004d0: afc3 4b7c ac97 b3bf 3e47 5ee6 74ca bcbf
000004e0: 21bd 6a1a 24f0 af3f 3b07 26f2 7add c33f
000004f0: 783f 8ddc e923 80bf 6503 d86c 54af a13f
00000500: 13f0 aa16 70d6 98bf 19de 79fd dd50 943f
00000510: 8c58 77d9 ddb8 bf3f ccb8 8b71 afe9 c9bf
00000520: 5164 423a 0e71 bb3f 6dd3 58b5 6482 913f
00000530: 9312 4744 f2aa c03f 11ff 54a6 1064 8ebf
00000540: 23a6 95fb 20e7 c73f 8fd1 032b 388a c83f
00000550: 15fb 97b6 82dd d0bf 5fd6 a022 4c16 b13f
00000560: e80d 6591 eef5 a0bf a5c1 a683 f584 9cbf
00000570: 6322 c8ea 7541 ba3f 145e 826a f72a 8ebf
00000580: c4a6 3c67 a7b2 c83f 6d44 7235 b7d4 a9bf
00000590: a5e0 5010 2e18 a1bf 0932 9e6f 0e3d b73f
000005a0: f3b5 4546 f901 60bf 2275 dd86 d25f b33f
000005b0: d1d0 085a adb8 773f 9417 2306 ef3b 9a3f
000005c0: 0aa8 bd09 47d0 cfbf d026 425a 9303 b4bf
000005d0: 56f8 5b2c 1481 bfbf fbc2 b9f7 2895 b7bf
000005e0: 1e5d fc02 fe74 bebf f172 87d2 116e b9bf
000005f0: aa7d 920b c301 9c3f 9039 2b62 8b86 a1bf
00000600: 45c8 5939 e6c9 bbbf 36dc 0463 dbe4 adbf
00000610: d307 7ebc 58ce 7c3f 6d07 d11a e526 b6bf
00000620: 5271 f4af 3e95 a9bf 16f0 8598 07ba bb3f
00000630: f5b1 9302 46c8 b2bf 06a3 35b9 4e8e 993f
00000640: 731b d1ce ec3c a8bf 2240 87e3 47e9 aabf
00000650: db94 88d6 1677 a1bf 3812 cbe6 491a b83f
00000660: 9edf 4550 21a1 c2bf b459 8a16 f30b b23f
00000670: 30c3 ce7a 830d b13f 4d85 0809 b982 b3bf
00000680: 3226 3454 03cb a6bf e9d8 2e08 05f7 813f
00000690: 87f2 357b 92ed b6bf 55a7 0d13 771e 813f
000006a0: a00c d01e 6655 923f f44f d740 ed39 d1bf
000006b0: 516f 9ff4 4ca8 78bf 24de d0e2 10e4 a33f
000006c0: 1b04 54b3 530e 793f dca9 ad26 5938 c0bf
000006d0: a558 e33e 36a7 a13f 17d1 8af8 47cc b6bf
000006e0: 428c a879 651f da3f b9bc 2d1b fd89 c13f
000006f0: 18cf fb68 4edf a5bf 6014 fdf3 a986 c5bf
00000700: ee36 2475 e8ae cabf 4207 bc16 55d9 b5bf
00000710: e09b aa71 c138 bf3f 8c9b 78a3 f3ce b63f
00000720: 3907 5190 3746 79bf 4d78 1ab4 9d0c a0bf
00000730: dacf 9984 b530 b93f 653a 6f42 93c9 543f
00000740: 74fd e5fb 25b1 bc3f e444 a945 117d b13f
00000750: 5d91 7e41 b32f c0bf b998 da36 dc8d bbbf
00000760: def3 750c 612f a03f 9378 2353 b82d afbf
00000770: b941 5d3a ec0b 913f 7fbf 9c45 1739 9f3f
00000780: 5f36 aed1 4428 9e3f 8bc2 641c 985b c53f
00000790: 9e25 5a19 3498 8cbf d1fd 76a7 2d84 a2bf
000007a0: 2c42 00f5 486e b6bf d28e 0b2d e43e ba3f
000007b0: efda fcc5 b4ed b53f 7e29 d8f9 1297 bb3f
000007c0: 59ef d9ec 5830 b0bf 50a2 e77a 0046 b23f
000007d0: 126a 2e91 85ac 89bf 428a 3d4b b392 c33f
000007e0: cbba 5513 5511 c03f c50b 052e 0a60 ab3f
000007f0: 9624 171f b385 983f af8c 1250 9348 c6bf
0.07161616372136298 -0.12847385594363034 -0.06780240334821452 0.06373440234198742 -0.07579131994659367 -0.07965553908518824 -0.06368870957976652 0.016687666750894607
-0.015152508602192853 0.1312437564398632 -0.32830497139915343 0.011327432233358792 -0.03634469972903875 0.12235697124281812 0.03890480812107532 -0.030205340957199595
-0.1626727014063689 -0.02567726561668339 -0.022806696026994436 0.06451812699331809 0.19644938273365534 0.06287216642823344 -0.07723898713166759 0.03813526392621678
-0.19792014354105839 0.1099942095300072 0.02122584574771994 0.06508032162839487 0.1056601527938837 -0.018464686410627915 -0.03458267957193783 0.010143271627055148
0.01770817224423071 -0.08422300926696975 -0.20019300005899404 -0.018055349906267483 0.03794353383606642 -0.0287663512444401 0.06636634975311914 -0.02610769568247926
0.17040046182906765 0.004907406251363881 -0.048849028323335306 0.10439813245761888 0.06529086055875663 0.032696045521604634 -0.11448632458175396 -0.0997724438011074
0.21557627203204666 0.01855637939410493 -0.1284865361510933 -0.1754428029465793 0.053383938738697484 -0.0618158821003158 -0.052619989098207434 -0.22196807211359967
0.00371469994159972 0.018581553765745242 0.06711395495526261 -0.04308654848959153 -0.07046302771392168 0.0491266074613856 -0.06931956360873533 -0.051677542033979715
0.1129141196173612 0.012274094684086339 0.09359441126893317 -0.11415127511501089 0.04078461317486954 -0.07760712804188671 -0.07898766775811325 -0.062490662719412435
-0.06218767722581587 -0.057419511158230324 -0.07465902338881461 -9.740667990247343e-05 -0.017391799232284733 0.09870587692126404 -0.07868041521631924 0.08938826814621081
-0.020543406013489234 0.0626835198007868 0.04910950165682154 -0.17759573118341782 -0.13615954852790696 -0.1597685301954128 0.026143087307707313 0.08598648409845172
0.010580631328322522 0.06771490599567939 -0.17491446800791488 0.01915520587894547 -0.18932081021133468 0.030969574539163228 -0.1350433363122995 -0.13583525664633772
-0.04479721532257465 0.07245097692874729 0.024916002508786343 -0.13716686758225577 -0.15512217018964197 0.11435490559093177 0.10454154856414892 0.12807591012686997
-0.13950619061564476 0.09072169110051224 -0.15315270558477037 0.15992074314122084 -7.90008503629771e-05 -0.10076692716781935 -0.13086591935354114 -0.05979952799983048
-0.08015299445461385 0.11693664438976957 0.03362788558817218 -0.10076768334952564 -0.04540430852827673 0.029012234666239606 0.1100957693007008 0.03209463833469487
-0.20291012670080152 0.032693106134777876 -0.03615510575879776 0.1931704078439073 -0.2035209053318133 0.13903370171133367 0.08743889453306558 0.10975742385757001
0.018837194890942894 0.19430452091895156 -0.0034954952276221554 -0.05556367674331464 -0.05558686435943186 0.056882672198259376 0.007002849178556478 0.24507199936135687
-0.15167831499349851 -0.04651101645542056 0.01093088126166936 -0.04625482339380177 0.027372914943113363 -0.2863102450333556 -0.11952522750699407 0.011940046743782785
0.0937809059302193 -0.19270749770443316 -0.11568605856322789 0.08065445474131688 -0.09930009315138287 0.08684943288743031 0.001459792639007525 0.133175220093032
-0.14897004787052456 0.003963582862414799 -0.07653310808724599 -0.11246424316621259 0.062379005646443504 0.1551965410581547 -0.007880999606328251 0.03454078510913553
-0.024255515464332755 0.01983973369212153 0.12391459044678949 -0.20244401020267444 0.10719384119364973 0.017098973816433927 0.13021686872356905 -0.014839296413469623
0.18674099239733363 0.19171812153184617 -0.2635199340001447 0.06674648137490057 -0.03312631153906037 -0.027850948486674593 0.10256134969689294 -0.014730389535812662
0.19295208493104188 -0.05045101668759675 -0.03338760327500382 0.09077539658591872 -0.001954066147098693 0.07568088333706105 0.005791356234613868 0.02561925387342219
-0.24854362464549268 -0.07817955926489195 -0.12306333621015261 -0.09211975143422173 -0.11897265980620772 -0.09933577909346149 0.027350471097290864 -0.034229617818357316
-0.10854948902286406 -0.05838666518905493 0.007032724977650023 -0.08653098969173607 -0.04996677301298526 0.10830733751021202 -0.07336843073762352 0.024956922582904738
-0.04733982109660575 -0.052561041378453646 -0.03411170357530021 0.0941511333904338 -0.14554230136468232 0.07049483585647104 0.06661245105966596 -0.07621342154063378
-0.04451761629941266 0.008771933853364238 -0.08956256397318373 0.008358888882600427 0.017903895979554663 -0.2691605694974435 -0.00601987896694907 0.038849380195127986
0.0061171788740930445 -0.12671961201279103 0.03447885053326275 -0.08905458276678178 0.4081662834234444 0.13702358080943158 -0.04271931678331792 -0.168172115454726
-0.2084627696971703 -0.08534747891465336 0.12195977234897226 0.08909533253664231 -0.0061704798181965665 -0.031346252665784925 0.09839949118924043 0.0012687624055051302
0.11207806968558548 0.06831462813103745 -0.1264556951329138 -0.10763336505133027 0.031611473818862854 -0.06089569105982764 0.01664704424121208 0.030491222022817063
0.029450488374598623 0.16685773264318401 -0.013962180160222822 -0.03616469067810225 -0.08762031537504161 0.1025221452687746 0.08565835794147934 0.10777395820347199
-0.06323772222998282 0.07138064385038345 -0.012536090367395256 0.15291443990561687 0.12552894062124262 0.053467100255623325 0.0239475238538814 -0.17408982667720838
