trained_model/weights2.npy (npy, 32896 bytes, 1 tensors)

array f8 [64, 64]
000000 33 a4 07 e1 0a bb 79 bf ce 78 0b c2 2f 8f ce bf
       -0.006281893249686243 -0.23874470686764088
000010 e9 95 db de ab d3 90 bf 38 48 88 1c 10 c7 b3 bf
       -0.016432462193639728 -0.07725620934095978
000020 21 33 1c 46 23 56 ad bf b2 af a7 82 30 00 9f bf
       -0.057297804172867346 -0.030274160360860676
000030 ff 80 02 f2 62 6f c8 3f 61 1f ae b4 0d 98 a3 bf
       0.19089924637683706 -0.03826945143288075
000040 d0 80 5c 65 95 8a c7 bf 0c 3a 19 be 52 9f bc bf
       -0.18391673516544538 -0.11180607930257497
000050 04 f9 ff cc 28 d4 c1 bf d0 b3 9e 8a ee b0 b9 3f
       -0.1392870903945963 0.10035601505542435
000060 6d 41 f2 af 5d 44 a6 3f 96 90 ff c7 e1 71 bd bf
       0.043490340926953454 -0.11501895077486987
000070 23 ba 61 d0 28 66 c1 3f c4 e3 e4 cb 6c 48 8d bf
       0.13593015837564434 -0.014298295948366298
000080 0e 7e 8d 25 f4 02 b7 bf c9 d9 19 ca 1a 63 b0 bf
       -0.0898888198548706 -0.06401221689325277
000090 95 6d a4 88 6e 59 a9 bf c5 79 70 9b ae e1 a3 3f
       -0.04951043527600089 0.0388311924691496
0000a0 ff 3b 03 c9 90 30 bd bf 9a f2 a9 d2 81 4e c0 bf
       -0.11402230174574866 -0.12739584719010538
0000b0 19 d3 a9 6a 39 99 cf bf 29 a4 d1 f9 18 8b af 3f
       -0.246863534051635 0.06160810517832999
0000c0 02 57 4d a7 dd f5 c0 bf cb 50 3d 64 7b e7 b6 bf
       -0.13250322979973111 -0.08946963498357545
0000d0 90 d8 01 c0 10 b1 7d bf bf 47 f4 06 fe 1b c0 bf
       -0.0072489408777213354 -0.12585425700723182
0000e0 64 da 0a 48 c5 11 cb bf 13 fa 5e 0f 72 08 aa 3f
       -0.21147981660552084 0.0508456844104225
0000f0 2a 10 1b ab bb 51 c2 bf b6 63 0f b6 b4 5a c1 3f
       -0.1431192956425787 0.13558062448171676
000100 09 c1 19 7a 0c a0 b2 3f aa 4d c1 a4 98 ef c3 bf
       0.072754649934499 -0.15574939770395463
000110 f6 5b d7 7f 5b ce af 3f 14 0d 8d e8 39 d3 c6 3f
       0.06212125716745469 0.17832111220386848
000120 e0 46 b5 50 cf 99 a0 bf 65 f7 19 db d4 65 c0 3f
       -0.03242347583967642 0.12810764978706426
000130 16 04 6b 0f 92 30 8d bf 82 d2 9e 8c d6 17 b6 3f
       -0.014252797217865914 0.08630124028315758
000140 17 17 b7 2a 5e a7 c1 bf 1d 67 02 2b 46 c8 9c 3f
       -0.13792016111090596 0.02810773503788432
000150 62 fa 38 ef 3f 6a bb 3f 7a 19 3e f3 4f c1 bc bf
       0.10708999243159092 -0.11232471169032535
000160 91 1c 15 4d 8b bf b0 3f 5e 39 d7 4f 83 cc a2 3f
       0.06542273170372172 0.0367165598832908
000170 b6 76 88 20 66 22 c0 3f 4c ce de 07 c0 cf b2 bf
       0.12604977215317142 -0.07348251526018962
000180 2a 10 85 42 1f 97 99 3f 78 98 0f d7 98 84 a6 3f
       0.02499054759506706 0.04398038506751417
000190 20 30 89 22 d9 56 b0 3f 7d ba 8a b9 d7 32 87 3f
       0.06382519810830489 0.0113274434564492
0001a0 97 9f 99 b0 b8 82 b9 bf 46 27 f6 b1 40 53 b4 bf
       -0.09965090095067662 -0.07939533562435228
0001b0 1e 61 29 8b fd e9 a1 bf c7 f4 18 87 95 cf 9e bf
       -0.03498833011389223 -0.030088745470710856
0001c0 4c 78 c3 a9 2c 34 c1 3f 1b 3f ea c7 4c fb c5 bf
       0.13440473832355548 -0.17173156510806895
0001d0 75 2e e9 22 5f 96 ad bf e4 a0 6c 59 40 46 99 bf
       -0.05778786946447393 -0.024682050188091234
0001e0 df d3 07 ae ed 2d b9 bf de fa f2 8e df 12 89 bf
       -0.09835706232827544 -0.012243029165231286
0001f0 71 03 f6 f9 86 39 c3 bf 67 5d d2 af a5 e6 c2 3f
       -0.1501930923950812 0.1476637943749026
000200 10 b7 80 19 b5 f4 b7 3f a4 23 6e aa 50 c7 73 bf
       0.09357768890978613 -0.004828753567274999
000210 67 fb bd d2 48 a9 a0 3f 42 05 e4 68 ee 6a 60 bf
       0.03254153797660458 -0.0020041138114953736
000220 9e 9c a5 43 aa fc bb bf 58 a6 ca 2b 81 06 aa 3f
       -0.10932411338363798 0.0508308759647888
000230 b2 dc 23 ee 25 bb bf bf 52 13 d5 a8 0c 3e 99 3f
       -0.12394940437285376 0.024650762371737862
000240 f9 66 84 8f 7d ab 8e 3f b7 0b 8b 58 ab 60 ac 3f
       0.0149755296156857 0.05542502837990731
000250 c3 34 3b 1c 10 09 b4 bf 46 af 72 c8 e9 c8 af 3f
       -0.07826328934898456 0.062079721182583245
000260 8a 11 fa ae 98 45 cd bf 7b 3c 9e 2a 7d 4f a0 3f
       -0.22868641418257268 0.031856452419668245
000270 44 5a b7 4b 10 2f b4 3f f9 4a 00 83 97 6c a7 3f
       0.0788431343893104 0.04575036501059588
000280 7f 30 be 63 0c a5 ac bf 7e 1e a8 f9 aa f6 76 bf
       -0.055946719337129906 -0.005606334564170033
000290 ae 16 c5 55 30 05 95 bf 13 75 be 94 59 c1 ad bf
       -0.020527606234529365 -0.05811576786730135
0002a0 82 da 2c 39 48 c2 c3 bf 74 6b c9 b7 43 d5 64 bf
       -0.15436651984937916 -0.002543098699147201
0002b0 74 f9 5a b7 08 62 b2 bf 6f 57 69 a7 0d ae 71 3f
       -0.07180838085603175 0.004316380820986384
0002c0 5d 1e 71 a4 7b 74 bb bf 95 fa 20 d4 cb a1 b0 3f
       -0.1072461391896637 0.06496881417204244
0002d0 a9 e3 1b 4c 51 5b a9 3f 64 5f 6b f0 ee 93 83 3f
       0.049524822750704196 0.009559504234331669
0002e0 5e 48 90 cb a1 6a a8 bf 2a 21 de d7 85 3b 96 3f
       -0.04768853769213942 0.021711436558264165
0002f0 71 93 fa df 25 1e b0 bf 99 68 4b ad 1f 7c 91 3f
       -0.06296002119286272 0.017075056984005774
000300 da 7a 67 33 90 54 a3 3f f1 27 2f a1 c0 0f 9a bf
       0.03775454165928745 -0.02545071586408904
000310 91 63 dd d4 71 8f 91 3f bb e7 10 ce 1f 1d ad 3f
       0.01714876043056141 0.05686282530264416
000320 23 8c 79 29 54 85 a2 bf cb 3a d0 0a 81 cb ab 3f
       -0.036173467696038374 0.05428698784827687
000330 cc bf 39 0e 5c e7 b0 bf 51 af ef 76 db 07 85 3f
       -0.06603026721290844 0.010268892829081418
000340 a8 39 a1 08 42 bb 8e bf df fb df 4c e4 5f c4 bf
       -0.015005603683815164 -0.1591763854375747
000350 b8 48 cc 65 12 46 a7 3f 59 76 9b 89 ca f3 b4 bf
       0.04545648090983562 -0.08184495791962244
000360 5d 5b 82 fc 43 9e a8 3f 19 ff 20 0c 2c dd 9e 3f
       0.048082470487478025 0.030140579452790115
000370 3f 80 ca eb a8 f4 c3 bf 7b af 9c 2e 62 88 a3 bf
       -0.15590392602189415 -0.0381498987102011
000380 6c 64 f1 cf 2f bd a6 bf df 90 f2 fa 76 f5 a3 bf
       -0.044412130483302587 -0.038982122548334656
000390 4a 51 a3 f9 7b ef 93 bf b5 72 82 32 53 f1 b8 3f
       -0.019468247520152894 0.09743232710975287
0003a0 72 e3 de 1b 28 bc a8 bf 05 30 4b bb fe a5 cb bf
       -0.04831052150934213 -0.21600326676559703
0003b0 5e 6d e6 6c 51 e3 c4 3f 89 0b fb 77 c8 a2 99 3f
       0.1631871968973923 0.025035030673062706
0003c0 7f 08 ec dc e1 1c c7 3f 3b 02 b5 51 1e b6 af bf
       0.180568917152474 -0.06193632838631343
0003d0 09 31 3f 4d 2b 0c b8 bf b1 fd 05 70 46 1e b7 3f
       -0.09393568645390728 0.09030571207949013
0003e0 c2 08 3b 92 df 1e b3 3f 03 cd 1f 38 ae fb bf bf
       0.07468983955462519 -0.12493409033031715
0003f0 e3 46 12 ba 3a 31 a8 3f 33 e5 ee db 78 05 af 3f
       0.04725059052829097 0.06058862385493526
000400 c2 df 76 60 58 e1 d0 3f 3d 4f 13 d9 57 9e d1 bf
       0.2637539808306394 -0.27528949927112817
000410 af 45 45 94 db ca b5 bf 99 77 eb 3c c1 26 93 bf
       -0.08512661332976877 -0.018702525466202855
000420 f8 a9 2b fa 55 f9 b0 bf 7b ef 50 bc 6e 94 c3 bf
       -0.06630456311874144 -0.15296730227589336
000430 72 de c1 70 5c 68 b6 3f 93 77 52 cc ad 17 b2 3f
       0.08752992394317419 0.07067381132443833
000440 70 c6 43 49 a7 c5 b9 3f ce 59 d4 80 89 9c cb 3f
       0.10067220247926811 0.2157146338510771
000450 b4 6d 64 79 6f 56 cc bf 11 19 a9 d3 6b ff b2 3f
       -0.22138780047758433 0.07420991818898794
000460 ea be b4 e5 d5 f7 b7 bf 25 34 1e ed eb 6f b4 3f
       -0.09362542017037936 0.07983278788579236
000470 9d f6 cf 5a 5c 64 b4 bf d5 c3 41 02 78 20 c2 3f
       -0.07965638367746881 0.14161586866569445
000480 41 0b 0e 2b 27 af b6 bf 91 cb 12 10 2c 58 b3 bf
       -0.08861012269157433 -0.07556414978425453
000490 3f 4d f0 6a 5c 16 b5 bf f9 9a b3 83 12 ba aa bf
       -0.08237245188529572 -0.0522008691566977
0004a0 2e d8 e2 3c c0 0e ac 3f 55 2d 6e a1 2d 37 90 3f
       0.05480004065741216 0.015835488298347872
0004b0 0b 6b 1b 49 81 24 b2 bf e0 e6 28 5c 32 8c 90 bf
       -0.07086952242699966 -0.016159808039652
0004c0 50 55 44 44 36 c2 78 bf 5a 47 6e be 8b 68 a4 3f
       -0.006044589976473461 0.03986012172312199
0004d0 68 4b b4 c9 3e d0 b6 bf 2e dd 88 3a e8 36 6a 3f
       -0.08911507057591239 0.0032000098911130403
0004e0 4d 15 44 82 c5 6c d6 3f b2 c2 d5 44 36 08 c0 3f
       0.35038888665470297 0.12525060998043142
0004f0 e8 bd 2f bf f4 25 cc bf 1e f1 20 4e ea fa bb 3f
       -0.21990832648542313 0.1092974129432531
000500 10 e2 04 e3 f4 eb b9 3f fc e6 72 35 00 fe ad bf
       0.10125666182000992 -0.058578497433201066
000510 55 1d 36 67 dc b3 bf 3f 1d 7c c0 f5 a2 7b 8a 3f
       0.1238382102948113 0.012931130528214091
000520 c2 5d 65 7b 9b a5 cb bf bc d6 9c 0c 01 75 ce bf
       -0.21599143529122783 -0.23794568172313812
000530 ce 55 97 4e f9 a3 bd bf 82 c5 0d 51 38 e4 cb 3f
       -0.11578329247216532 0.21790222127632936
000540 92 bd a2 5c 32 59 b1 bf bf 9d 3e 7a 14 e7 cf bf
       -0.06776728402723212 -0.24923950165724126
000550 11 1d 07 32 16 52 88 bf b1 c7 9e 35 8d ce a0 3f
       -0.011875317956663996 0.032825863643111027
000560 56 69 3a 02 2d 10 c3 3f 27 20 df 27 3d d2 be 3f
       0.1489311467056022 0.12039549086978295
000570 ab d1 ed 54 7b 24 a5 bf 14 73 7a 9e bd 8c bb 3f
       -0.04129395877581329 0.10761628264522144
000580 f0 16 81 e1 78 58 92 3f 04 38 0b 9a df cb d8 bf
       0.017915619624793544 -0.38744344752637994
000590 0d 2b 4f 54 2d 22 b6 bf 51 63 df 25 40 4f bc bf
       -0.08645900066691699 -0.1105842678511071
0005a0 86 67 c6 fa 12 c6 cc bf 3e de 2e 73 f9 44 a0 bf
       -0.22479474301217922 -0.031776233015474706
0005b0 88 30 ea 87 18 5d 94 3f c5 c9 59 b2 8a 80 d1 bf
       0.019886382384854545 -0.27347056786598173
0005c0 aa 36 5a 35 6c 86 c5 bf 54 9c 97 b6 fd a5 d3 bf
       -0.16816475491616717 -0.30700629073402763
0005d0 3a 0c 5e 5c 68 90 c0 bf 57 36 34 38 be 64 97 bf
       -0.1294069720280236 -0.022845241718690037
0005e0 d5 35 37 d2 12 bc b8 bf 5b ba a0 26 75 08 c8 bf
       -0.09661977417200458 -0.1877581060993688
0005f0 9d 51 e7 1d f6 12 ad bf eb a9 cc d8 4c 6f 52 bf
       -0.05678528895410582 -0.0011251688440078132
000600 2c 46 ad f3 5a 30 bc bf 17 8e c3 f7 8f cd b3 3f
       -0.11011284302846808 0.07735538290904063
000610 e8 6a 01 02 10 0d bd bf 92 57 37 bb 00 73 b3 bf
       -0.1134805683990795 -0.07597355433185118
000620 f4 93 12 c9 64 66 8b bf 65 f7 4a 0a c8 e0 c6 bf
       -0.013378894220588557 -0.1787347841508861
000630 d4 38 5a b6 98 29 b7 bf c2 fb 5b 4b cf 73 b7 bf
       -0.09047846271480192 -0.09161086644961272
000640 4d ec 02 db 62 9f af bf 30 d7 7e b2 ec 78 90 3f
       -0.06176289485434747 0.0160862907357206
000650 30 bf 10 2a 59 33 bd 3f 5c a3 08 a6 b6 55 54 3f
       0.11406476284969069 0.00124113880895945
000660 52 9d 20 43 66 b3 b9 bf d7 ad 7c 56 36 a4 7e bf
       -0.10039366854527046 -0.007480823762118636
000670 e8 41 3c 55 c3 87 bd bf 32 f7 26 5f c5 1c a8 3f
       -0.11535282927457724 0.047094505181560456
000680 0e 37 04 fc e0 0d 5c 3f 48 86 1e 47 22 c6 84 bf
       0.0017122933496155931 -0.01014353541887937
000690 7d f1 9c 50 5a e3 bc bf 1b e6 59 81 94 5a 75 3f
       -0.11284412830440789 0.005213337038747957
0006a0 77 a8 57 25 ce a2 d1 bf e6 ff d4 47 1c d9 bc 3f
       -0.27556184431762837 0.11268784288131392
0006b0 60 b5 49 5d 07 15 c0 bf 97 c6 3b 4f ef 80 b0 bf
       -0.12564174704622655 -0.06446738895808789
0006c0 28 90 ed 94 aa 76 98 3f 80 93 23 10 d4 c8 bb bf
       0.023890176143496117 -0.10853314775483902
0006d0 b5 9d 51 81 f7 56 cd bf 10 28 ee 61 4a be b6 bf
       -0.22921651663203382 -0.08884110346676288
0006e0 50 d5 76 e4 b3 ce c3 bf f9 c8 58 38 79 70 b1 bf
       -0.15474556594350952 -0.0681224596562834
0006f0 ad a5 8b 17 56 19 c8 3f aa 01 03 ee ea 14 b0 3f
       0.1882732024162527 0.06281917868455503
000700 1f 67 d3 32 48 b5 c1 3f 04 e1 df 2b 10 92 90 3f
       0.1383447883770765 0.016182186773193954
000710 2d f2 6f a0 e1 b4 ac 3f d8 00 16 6b d2 2d b8 bf
       0.05606751521552087 -0.09444918741610608
000720 d9 c1 f4 8a be b2 c7 bf 8c 21 f8 b8 46 b0 ca 3f
       -0.18514234337773308 0.20850452453329316
000730 91 0d 2a 18 9f 7f c2 3f 80 30 1b 89 1e be b7 3f
       0.14451969795127842 0.0927447399837451
000740 e8 e5 e9 ee fd ba b5 3f 14 4d 3d 13 ea db b1 3f
       0.08488452036717542 0.06976187677110018
000750 74 fe 41 a3 16 9b bc bf 1a bf 5e 31 56 01 c3 bf
       -0.11174146161828863 -0.1484782925667723
000760 d6 0c 80 f9 47 3a b7 bf 6e 85 4a 83 6a 8e c7 3f
       -0.09073304978669525 0.1840336934156243
000770 5e 41 05 a9 4d 01 d4 3f 84 79 84 c0 71 c1 b1 3f
       0.31257955079947475 0.06935797643789071
000780 30 e9 7e 15 fe ac c7 bf f4 d6 57 db e8 bf c1 3f
       -0.1849668126067825 0.1386691161166521
000790 d3 7d 74 b2 bb 3a 94 bf 4a f2 67 11 f1 b2 c8 bf
       -0.019755299346000243 -0.1929608664503511
0007a0 96 79 30 bf 80 e7 c2 bf 08 7e cc b1 88 c1 54 3f
       -0.1476899083654188 0.0012668452174650086
0007b0 b0 55 3a 99 ff 4a c9 3f ce 09 e8 3d 00 ec aa bf
       0.19760127050237264 -0.052581794316228433
0007c0 74 ae ed 4c a6 96 c1 bf ff 35 2a 26 a2 4d b3 bf
       -0.13740996128341332 -0.07540334159622118
0007d0 3b a7 43 60 87 bd 89 3f c1 a2 f6 b0 df cc bd bf
       0.012568528771641154 -0.11640737600704211
0007e0 ff 8a a6 3c 41 4d 9b 3f 82 c3 6d b1 fd 41 94 bf
       0.026661891295257863 -0.019782985643761027
0007f0 8c 90 34 ba 8d b9 ce 3f 60 f6 f1 ca 81 25 c3 3f
       0.24003764717156562 0.14958212289268413
