trained_model/weights1.npy (npy, 460928 bytes, 1 tensors)

array f8 [900, 64]
00000000: e1fe fc7f 2f84 b13f 5aab 5ec7 4daa bfbf
00000010: c460 6426 f326 a6bf e6d6 8854 ebb0 b03f
00000020: dee5 52e2 b0c9 b1bf 5a96 f693 a2e2 b0bf
00000030: 6893 4e2e 7696 b2bf a712 a8c3 c9bb 823f
00000040: bf4f df92 6b53 87bf 2025 980b ed41 be3f
00000050: 257d bbab 6b77 d4bf c2de 0e72 68a3 873f
00000060: bfea 74a1 22eb a4bf e816 e82e 15c5 bd3f
00000070: dd8a 066c 84a9 9e3f bcad 7d4b e4b0 a4bf
00000080: 4964 335a 5ba1 c3bf ab62 42b2 e973 503f
00000090: 2988 8f4b a83d 91bf ab57 6b03 f3d4 b03f
000000a0: f74d 0bd3 7ff0 c93f a06b 84dd 76a1 ad3f
000000b0: 85f6 58ad 643b b3bf 27a4 74a0 d1a0 9f3f
000000c0: 3e98 1960 a48b c7bf dcd4 0bc6 9280 b63f
000000d0: a672 7931 8bce a53f 76df fda4 411d b13f
000000e0: 1840 894f 1fc8 b33f 6204 6f4f 9a63 9abf
000000f0: d39b 6136 efb7 98bf 202f 6ccb 023d 81bf
00000100: 7f54 141b 4d7c 993f 389e 69e9 ffdf b5bf
00000110: 8008 72b2 30c6 c9bf fb75 7c6e 1012 95bf
00000120: 1184 08aa 6369 a43f a58f a0b3 aeaf 98bf
00000130: 77d8 cf4b 6575 b13f 3878 1c90 a202 9abf
00000140: 7527 c6d7 77b1 c13f 46dc dd24 c0e9 813f
00000150: ca4b 2a7f 29b4 a2bf 54a2 e93b 3c8b b73f
00000160: e895 1eec 7868 b53f 0c0c 3dfe 26f6 a23f
00000170: 7f95 591e 8d41 b9bf ec39 15d1 4be6 b8bf
00000180: 1d47 8004 10de c93f 6626 1960 5357 763f
00000190: 824b c987 9103 bdbf 6e49 a109 858d c4bf
000001a0: 8c75 008e bb6b a83f 86ba 9cc0 dc53 a9bf
000001b0: 56eb de22 c6db a3bf 72a1 1405 31cc cbbf
000001c0: fdfa d2a7 03db 7dbf 5d41 79da 626c a13f
000001d0: 3a3d d317 56f7 b13f 84e2 9dac 8d87 a4bf
000001e0: 981c 3aa6 476c b3bf 0d9b cc87 389e aa3f
000001f0: c1ca cb62 86e4 b0bf e4de c20f e96b a5bf
00000200: ad06 f439 b016 bc3f 0297 38f6 0377 913f
00000210: 545f 43a5 d33d be3f f7f0 911a ffd8 bcbf
00000220: f9f9 dd73 751c a83f 3503 86f1 635c b0bf
00000230: da86 581b 1881 b6bf ff78 2bb7 8eed b1bf
00000240: 10fc b742 d9e9 adbf 842c b258 4f0a b2bf
00000250: 3852 76d3 bdee b0bf d488 0a0d 43c0 1e3f
00000260: 9fc8 b8a3 e16d 96bf f1e9 47aa 15b7 b73f
00000270: b777 b895 af6f b6bf e00e 2aaa 3d45 b43f
00000280: 7e9e 1587 0601 87bf 3ef7 66a2 9fe0 b63f
00000290: 00d2 6d04 5f33 ac3f 12d8 adbd 1c93 c6bf
000002a0: 40d0 041e 6ea2 c0bf 9cd1 ffcf 1f17 c5bf
000002b0: 52ef 72dd 6aef 9c3f 57cd d3a9 2e28 b43f
000002c0: de00 3824 1724 993f 6022 2388 835b a73f
000002d0: 619d 2268 7da7 c3bf 0e94 213b 086e 953f
000002e0: 52c6 c102 e0dd cbbf 6e37 e4c8 4a3b 983f
000002f0: 7471 d4f0 c5e5 bfbf 7edf 23d3 3cc3 c3bf
00000300: e487 4e39 8e42 a3bf e096 6e65 c93b b23f
00000310: e80f b1dc 7351 983f 98f4 4ee2 4de1 c1bf
00000320: 5062 e097 079c c3bf 3244 9090 ac77 be3f
00000330: bc3b 39da 3e3b bb3f bd58 4082 f57b c03f
00000340: f0e4 c194 8df9 c5bf 2aa7 90cf 2435 b83f
00000350: 0cf2 2209 dd06 c2bf 005e 7e88 fbe0 c23f
00000360: a79c e48c 92b1 923f 840c cf9f 8daf b8bf
00000370: 476c 371e 0173 bdbf f738 fb25 4355 adbf
00000380: ed31 07bf c9f8 b7bf 44fd bb2a e894 ba3f
00000390: 626b 9647 86f9 a83f b80c c476 21fd b5bf
000003a0: a4d6 7af8 a328 aabf 56eb 861d 292d a53f
000003b0: c287 6e5b dab9 bf3f ebd9 b1dc bde3 a23f
000003c0: 75da bac9 8661 cbbf b1b2 50fa 03a6 a83f
000003d0: 7ac0 427d 02f1 a0bf 685a 4c93 c71b c93f
000003e0: f716 8933 2ebe cabf 35d6 b080 a129 c23f
000003f0: 005b 4b20 cc3c b73f 10f2 0dc3 d89d be3f
00000400: d5af c75b 0d05 903f 9e33 8e62 a67b c93f
00000410: a0e6 5a40 c58b 953f 0195 399f ccb2 abbf
00000420: 04dc afbc 243b a9bf b24c 277c 8811 b23f
00000430: fd1d 8c55 a867 5fbf 7409 f83f 6f67 ce3f
00000440: 2153 ef31 e4ee c2bf a4cd 6559 d27e aebf
00000450: 1d80 84f7 e9e9 933f 6f8c fbc4 9192 a7bf
00000460: c9e4 de79 eb68 973f 6f9a 7c3e 55b6 d2bf
00000470: 4332 5ce9 3e72 c0bf 082e e106 0866 5c3f
00000480: 53e5 0cdc 3a64 ba3f a4c8 bc50 5740 c5bf
00000490: eee4 7433 5b16 bcbf 24df 5fab 75f6 b43f
000004a0: e8a5 a530 3dd5 b7bf 7361 0c36 1bf4 b43f
000004b0: 80a9 1500 b846 6d3f 90f2 d423 5f1e c03f
000004c0: 4c58 1436 a547 c1bf e13f 76cf ff90 92bf
000004d0: 9f13 c0f9 ea3e acbf 3b3a 62de 4d56 bcbf
000004e0: c64f 0250 4c67 a13f 3503 5aac 14ee c23f
000004f0: 720c 5e93 01fe 643f 6762 5304 285d 903f
00000500: 1360 3b4e 3a7c 91bf ecab 50d1 6c0f 933f
00000510: 3e81 b7a8 556c bf3f d986 ac3e 4e3c cabf
00000520: 92fb 5a32 15ef bb3f 1711 0029 a347 963f
00000530: 96b1 4f9f f3e6 c03f 8d59 832d 62f1 8cbf
00000540: ac12 f825 eac8 c33f 24e3 a3de 0508 c93f
00000550: 5180 b739 b013 d0bf e470 beb3 64cf ab3f
00000560: 035e 3edb 294b 8ebf 66da 1100 ba13 98bf
00000570: b186 5998 e24e be3f ee9d d439 d707 89bf
00000580: b102 a794 b6f8 c63f 99cd 58c7 0245 b0bf
00000590: 00c8 cbc4 a8ac 92bf cdff 5429 d60b bb3f
000005a0: f80d 5a23 3e4c 7fbf ed9e 8d8e 0e89 b63f
000005b0: 2f11 f0c1 a218 943f c1be 6d07 0026 9f3f
000005c0: 29ff 2e28 6c9c d0bf 131b c1aa 240f b0bf
000005d0: ab13 2c66 1fb8 bebf eaa9 5f79 37d1 b6bf
000005e0: 4cb7 9a39 68d7 bfbf 7720 0a43 85b2 b8bf
000005f0: 1af9 13ab 5e6b 9f3f 5c37 f7bf f3f9 98bf
00000600: 69c4 2d20 37aa bcbf 95a4 71dd 2b66 abbf
00000610: 133d e418 829d a03f 6cea c5d4 a6cf b5bf
00000620: 427e 6268 3c37 a6bf 4977 b562 5551 bf3f
00000630: 7f8e 0636 4e1c b5bf 3d1b da80 6dc5 913f
00000640: 8093 8e1e f14d a6bf 55b9 cc29 d4e7 b0bf
00000650: 0834 425f 0eb1 99bf 4ead f987 cd26 b83f
00000660: cdfa 2471 b638 c3bf c915 2ea9 bd81 b03f
00000670: 3e49 5108 5641 ad3f d6eb 21fc 0138 b6bf
00000680: 3d1f 9853 4af0 a1bf 0421 f3dd e19d a23f
00000690: ea61 1e79 9950 b5bf 8b20 99d3 f141 843f
000006a0: 4ace 6b21 00c4 983f 2b69 59b2 9090 d1bf
000006b0: dee6 701c 92b6 70bf c7f0 0287 8b0d a03f
000006c0: 5066 8af4 eff5 943f f433 7848 a824 c3bf
000006d0: 0910 c908 d5fb ac3f d62b d663 7957 b6bf
000006e0: 6f4e 51ae 573f d83f 031c 5093 e88c c03f
000006f0: 439e 9f5e 4646 a0bf ed1b d740 04fe c7bf
00000700: 45bc 0ef3 31c5 c9bf c30f 5dec a11e b6bf
00000710: de99 67b8 24e4 be3f 3ce6 e6f0 5712 b63f
00000720: f1e1 c66d 3098 71bf a3aa 48a9 ad54 9bbf
00000730: b410 8365 5eac b93f 9a67 3e68 865d 613f
00000740: dbf0 ca1a 792f b43f b8b3 a52f 5476 b23f
00000750: 1d2a 9e60 4308 bdbf 61fa 8d6c e2d9 bebf
00000760: 0417 2215 98ca a93f 00af d06f 09df acbf
00000770: 8e32 fe58 98df a03f c45c d06e be0d a13f
00000780: 9ce9 4ffe ae10 903f a29f 1cfb d69d c33f
00000790: c101 1cd2 bdac 583f d706 ca06 696b 95bf
000007a0: 6605 270c 42f1 b7bf 76d0 40ff bd80 bd3f
000007b0: 1509 d8a4 6477 b93f 50ef 756e 36d8 bc3f
000007c0: b9b7 a92f 60fc b2bf ce06 c214 035d b63f
000007d0: 9354 9ff2 4552 83bf 5915 ba81 26f1 c33f
000007e0: ecee 73cb beb4 be3f 9711 001c dadb ac3f
000007f0: 4ee9 37f0 f208 9c3f c8b1 60d5 33fc c4bf
0.06842324137414436 -0.12369238011767206 -0.043265913425956565 0.06519957364875104 -0.06948380971416365 -0.06595817673095308 -0.07260836248913238 0.00914723995539053
-0.011389580173194134 0.11819345028938644 -0.3197888543199546 0.01154214475705773 -0.04085643978983943 0.11628849406414654 0.02994353207908317 -0.040412077155305565
-0.153361720126471 0.0010041982832601863 -0.01683676682649363 0.06574934800604974 0.20265195660486743 0.05787249998157695 -0.07512501937977774 0.030886912744936403
-0.1839490384329014 0.08789937338936532 0.042591428555828245 0.06685266759984451 0.07727237407493737 -0.02577057943176831 -0.02413915414254204 -0.008417150338139445
0.024888233926578792 -0.08544921349095425 -0.20136078560978277 -0.020576721900502176 0.03986655665017492 -0.024107675279210778 0.06819756604076753 -0.025400676771021063
0.13822839771119858 0.00874662506588043 -0.036530777714822785 0.09196831190787097 0.08362537159572236 0.037034243140190964 -0.09865648261037128 -0.09726404051364285
0.2020893117883639 0.00545437401303559 -0.11333570065589352 -0.16056883783546588 0.047696934780314754 -0.04946794368003275 -0.03878611732166941 -0.21716892955852135
-0.007288946418326556 0.03403004567064969 0.07018030244511389 -0.040096690484408476 -0.07587096985126818 0.05198837907510354 -0.06598701393140073 -0.04183891599080683
0.10972119727014258 0.01705557051004459 0.11813090119119113 -0.11268610380824727 0.047092123407299576 -0.06390976568765157 -0.08790732066747911 -0.07003108951491653
-0.05842474879681714 -0.0704698173087071 -0.06614290630961583 0.00011730584379646424 -0.021903539293085413 0.09263739974259246 -0.08764169125831144 0.07918153194810484
-0.011232424733591314 0.0893649837007304 0.055079430857322365 -0.17636451017068616 -0.12995697465669487 -0.1647681966420692 0.028257055059597143 0.07873813291717134
0.024551736436479447 0.045620069855037526 -0.1535488851998066 0.020927551850395125 -0.21770858893028106 0.023663681518022832 -0.12459981088290367 -0.1543956786115323
-0.03761715364022658 0.0712247727047628 0.023748216957997587 -0.13968823957649046 -0.15319914737553342 0.11901358155616107 0.10637276485179731 0.12878292903832814
-0.17167825473351384 0.09456090991502877 -0.1408344549762578 0.1474909225914729 0.018255510186602788 -0.09642872954923304 -0.11503607738215847 -0.05729112471236591
-0.09363995469829663 0.10383463900870021 0.048778721083371904 -0.08589371823841219 -0.05109131248665946 0.041360173086522664 0.12392964107723883 0.03689378088977321
-0.2139137730607278 0.04814159803968233 -0.033088758268946486 0.1961602658490904 -0.2089288474691597 0.14189547332505162 0.09077144421040018 0.1195960499007429
0.01564427254372432 0.19908599674490984 0.02104099469463583 -0.05409850543655104 -0.04927935412700182 0.07058003455249454 -0.0019168037308093793 0.23753157256585278
-0.1479153865644998 -0.05956132260589733 0.01944699834086815 -0.04604011087010284 0.022861174882312683 -0.29237872221202726 -0.12848650354898625 0.0017333105456768267
0.10309188721011724 -0.16602603380448955 -0.1097161293627271 0.08188567575404854 -0.09309751928017074 0.08184976644077384 0.0035737603908973514 0.12592686891175164
-0.13499894276236757 -0.01813125327822707 -0.0551675252791377 -0.11069189719476295 0.03399122692749716 0.14789064803701427 0.0025625258230675347 0.015980363143940936
-0.017075453781984672 0.018613529468137033 0.12274680489600073 -0.2049653821969091 0.10911686400775825 0.02175764978166325 0.1320480850112175 -0.014132277502011426
0.15456892827946456 0.19555734034636274 -0.25120168339163224 0.05431666082515266 -0.014791800502094615 -0.02351275086808826 0.11839119166827562 -0.012221986248348107
0.17946512468735912 -0.0635530220686661 -0.018236767779804097 0.10564936169703217 -0.007641070105481422 0.08802882175734413 0.019625228011151904 0.03041839642850053
-0.259547271005419 -0.0627310673599875 -0.11999698872030133 -0.08912989342903868 -0.12438060194355421 -0.09647400747974354 0.03068302077462546 -0.02439099177518443
-0.1119722798882933 -0.0535138805215151 0.03245169214107526 -0.08519976324706996 -0.043390166990545 0.12233480129131381 -0.08246315783486045 0.017354689588070505
-0.043563399295897476 -0.06603742619038162 -0.025089478077053 0.09434208459577073 -0.15016823315268937 0.06447968845721798 0.057139099612543806 -0.08679211049631816
-0.03503639479100549 0.03636079630229186 -0.08326110083579122 0.009891404409373436 0.024185182609427515 -0.27444856087608355 -0.004080363031840865 0.03135334036912379
0.020469426441741156 -0.1495561937194051 0.056608826944767605 -0.08727225005547665 0.3788661196060507 0.1293001860906032 -0.03178615479538085 -0.18743947187451174
-0.2013304173283094 -0.08640491505235474 0.12066869260852495 0.08621739989657667 -0.004295529532492002 -0.02669020982481619 0.10028638819045704 0.0021197915211361275
0.07884938148612568 0.0721180549932815 -0.11340733631929152 -0.12051215315111953 0.05037379510853948 -0.056389136218369273 0.03295589529361563 0.03330798247059755
0.01568864276121361 0.15325438748663794 0.0015060285299456219 -0.020917550124528752 -0.09352505490007487 0.11524569970862494 0.09947804474362372 0.11267414280694976
-0.07416344798704601 0.08735675102982585 -0.009434267489192549 0.1557968266899177 0.1199454542838187 0.056364837568284525 0.0273778876416853 -0.16394660872300748
