trained_model/weights2.npy (npy, 32896 bytes, 1 tensors)

array f8 [64, 64]
00000000: b7b2 9a03 34ef 78bf 0c4a 8850 d097 cebf
00000010: e3f7 8346 67bf 90bf e239 f13f 48b9 b3bf
00000020: 00e5 ab2d 1664 adbf 24ee ad68 fa27 9fbf
00000030: 9d60 36a7 826c c83f 7398 16d0 2280 a3bf
00000040: d92a ec20 6d93 c7bf 5283 69f6 8b97 bcbf
00000050: 3574 d754 a8d5 c1bf beac 30e8 b3d1 b93f
00000060: 23d1 9162 0f3a a63f 8c65 8e94 5c6b bdbf
00000070: 5bfd cab9 0f66 c13f 167f 236b 71c2 8cbf
00000080: 8307 8996 b003 b7bf 1ee6 799e cd75 b0bf
00000090: 8404 e732 a489 a9bf 5929 41a6 0cd8 a33f
000000a0: d431 48cc 8336 bdbf 8f24 b03c 8f4d c0bf
000000b0: c08f 1335 faa1 cfbf bb43 8519 4984 af3f
000000c0: 0174 9366 07f8 c0bf ce58 1463 18f1 b6bf
000000d0: c3bd b627 ec66 7dbf f3da 8646 da1e c0bf
000000e0: e99b 77f9 ef08 cbbf cbd4 d29d b737 aa3f
000000f0: 2c78 e054 405a c2bf cd03 ac26 1863 c13f
00000100: 025a f74b 50b3 b23f ab60 5798 3aee c3bf
00000110: 0b91 f0ce 05f9 af3f ac46 f5b4 8ad9 c63f
00000120: 548d 93b4 16c9 a0bf ff7a f6a5 2360 c03f
00000130: 3792 fbd3 7c2e 8dbf ba6a 51c5 cb27 b63f
00000140: a4cb c05f d4ab c1bf d398 6640 4bb2 9c3f
00000150: 7702 6517 085f bb3f 05a4 f5cd bac0 bcbf
00000160: 532c 2628 8dae b03f 54e2 9098 81be a23f
00000170: 1c9e 2154 691e c03f 5f8b a117 6ec7 b2bf
00000180: 773a cf66 a281 993f 1c54 218e 3777 a63f
00000190: f386 ab75 1058 b03f 66a4 3b58 cbb2 863f
000001a0: 924e 7f19 3176 b9bf 27d2 b996 c352 b4bf
000001b0: eef2 da55 56d1 a1bf d137 f851 41bb 9ebf
000001c0: 0b62 e8c7 1937 c13f d2e9 9aa3 db01 c6bf
000001d0: 0741 063c 1a8f adbf 741b 4966 5349 99bf
000001e0: ca20 f345 c236 b9bf 1698 94c2 53ff 88bf
000001f0: 5e2a f55e 2732 c3bf 8789 3f49 29e4 c23f
00000200: 8a38 7ce3 db50 b83f 1419 593b 363e 7bbf
00000210: 7222 0c57 be34 a13f 1b9c 1613 7e4d 65bf
00000220: 159a f6d7 7002 bcbf 37aa ed01 ac62 aa3f
00000230: a9f1 638d f3d4 bfbf 36fc b765 e19c 9a3f
00000240: 71b0 7434 d644 8a3f d07d d2ff 1cf2 ab3f
00000250: 97a9 57d1 3ad4 b3bf 8e2f 85b1 b408 af3f
00000260: 6b07 8e30 c26c cdbf 8c21 6f1f 0316 a13f
00000270: caa5 e6af 3d7e b43f 7081 0b40 8b17 a83f
00000280: 4f6e 12b1 923e acbf f498 630c 73b9 7cbf
00000290: 1bd0 3694 cc57 95bf 90e2 4acf 4735 adbf
000002a0: ae82 6ff1 e5c8 c3bf 6a44 1f86 36c0 58bf
000002b0: 3e00 2e35 d24e b2bf 7b24 ef1a c12a 723f
000002c0: 137b 9f26 69ac bbbf c09b 2d05 2bba b03f
000002d0: 8d49 87db 3059 a93f a258 058d a2db 823f
000002e0: e548 1e15 1c42 a8bf 2f73 09fe 386b 973f
000002f0: eb83 f5df c4c4 b0bf 6923 fc39 bb5f 913f
00000300: 234f ff32 ba8c a23f a0bb e797 53f5 99bf
00000310: 3302 7ab6 d818 933f 60c4 fc5c 100e ae3f
00000320: 2a12 db40 7112 a2bf c970 6287 5cfd aa3f
00000330: 9860 bf43 261e b1bf bfa8 0fc8 1ccb 883f
00000340: db0e 9e85 6baf 90bf 70b5 2bc2 7c65 c4bf
00000350: bb4f a204 6fba a73f 550f dec5 91b9 b4bf
00000360: aeac 70a9 5567 a73f d22d 820f 0e24 9d3f
00000370: c679 eee7 f853 c4bf ed24 edea ec1d a4bf
00000380: 1f59 89e0 08e8 a5bf 0ad2 7fd9 d890 a4bf
00000390: ee65 683a 7c84 93bf 62e4 a6dd 94ff b83f
000003a0: d62a ee87 e724 a7bf 4d26 c98c 3256 cbbf
000003b0: acac d516 c1b8 c43f db2d fcb3 385b 9c3f
000003c0: 57c4 9448 af53 c73f 97a9 1687 9904 b0bf
000003d0: f681 3e75 1e58 b8bf ed0e 6eb0 0805 b73f
000003e0: 7aff 313c 83c7 b23f 52bb bbea b6e2 bfbf
000003f0: 802d e863 ace2 a73f cf89 eb96 2d99 ae3f
00000400: f18a 0952 4186 d03f 625a ae6c c9a7 d1bf
00000410: 64ff 62bb 3920 b5bf f8c4 3d23 9c72 8dbf
00000420: c42c f52a 6f2c b1bf 3e22 9813 8516 c4bf
00000430: 5128 6ff4 3d91 b43f a3fd d679 3f8d b43f
00000440: be23 72a7 bd96 b73f f79a f1b9 1b69 ca3f
00000450: efa0 c2b4 648c cbbf b445 9bb1 385b b53f
00000460: e243 f099 823b babf 395b d95f 959b b53f
00000470: 7562 2db4 98a7 b3bf 6124 c54a bbde c23f
00000480: 68f9 9fd5 2220 b7bf c3e6 e9d8 a521 b4bf
00000490: 2ef3 b3e9 fb98 b5bf 1e0e a123 1484 a8bf
000004a0: e1d8 b5a7 c296 a43f d90c b8cd 8bf0 903f
000004b0: 1174 89ed ab10 b4bf 1eb3 26d5 3984 89bf
000004c0: d908 2be9 0eba 85bf e531 2512 baa4 9b3f
000004d0: 826d e35e 828b b8bf 7eb3 db75 5a23 57bf
000004e0: 381d 5e90 5589 d53f a9d0 7535 bf32 c13f
000004f0: ecd2 39c6 f4d3 cbbf 717c d524 101e bc3f
00000500: d812 4d08 439b b93f c660 07a6 0a46 afbf
00000510: e3b4 49e7 d424 c13f 1f73 2ad3 3cda 873f
00000520: c5dd fb9d 3752 cbbf 36aa 2439 0be5 cebf
00000530: 89f7 3c59 fce7 bdbf 58c2 a147 d28e cc3f
00000540: ceb1 ec1a e85a b2bf 8f33 4cd9 d892 cfbf
00000550: 4908 33c1 0aa4 89bf 11fc 46d3 eb9a 9e3f
00000560: 91e0 69ce 3880 c23f 5cf5 6f23 bb22 bc3f
00000570: 1e1d 6a6d 0a2c a5bf ee53 c7e6 b0ac ba3f
00000580: af15 ad7c a612 933f adbb 00af a9d9 d8bf
00000590: 1700 47cf b641 b5bf 902a 961b 3995 bcbf
000005a0: d87d b658 00ae cbbf f6cb 2e45 4907 a0bf
000005b0: c76c 6ad3 78b8 953f 4035 8b0c 7984 d0bf
000005c0: 05c6 64c6 acfe c4bf d1cd a91a 3689 d3bf
000005d0: be19 69c3 1ab2 c0bf 257d b4f0 45d8 96bf
000005e0: 0ae4 99e4 4ba9 b9bf 3b19 cf80 c1c0 c7bf
000005f0: 2e09 f4c3 c479 adbf c604 f93d 6a73 33bf
00000600: 75f2 5536 e238 bdbf 05cd 3999 7b34 b43f
00000610: 4d80 6b99 33b7 bcbf 64d2 7594 53d3 b2bf
00000620: dffc 9a4e ecca 8bbf 19ed 8220 2958 c7bf
00000630: cdd9 b18e 7250 b8bf 591c ab6d eb3e b6bf
00000640: a04d 09e1 40a3 b0bf 25b2 4a8f 27ee 853f
00000650: 8fec 3fb6 be41 be3f e833 1a8c 73dd 7c3f
00000660: 6612 c6d0 c5e3 babf 82c7 7743 7357 76bf
00000670: 864a fa8d 185d bdbf d5ec 268a eb57 a93f
00000680: 6642 7c21 c248 363f a38f d891 056f 87bf
00000690: 5461 8ff1 c9f4 bcbf 36f5 e0de f002 7b3f
000006a0: 849a 7faa 0130 d2bf d84d 3d60 b7cc bc3f
000006b0: 131f 9948 06c4 c0bf 78af 839a cb07 b0bf
000006c0: 9f34 4d7a 22fc 953f 4685 77bd 06c3 bdbf
000006d0: ea2d 3148 1ccc cdbf 933e 036b 506a b7bf
000006e0: d4af ca4f 13f4 c4bf 2c42 7e30 5a77 b0bf
000006f0: a07b cad7 6893 c83f 2666 911f 2d15 b03f
00000700: 68a1 deb4 87a4 c13f 809b 525f 2081 8d3f
00000710: 9c90 131c df9e ae3f d16d a1e0 38a3 b8bf
00000720: 34ba d969 269b c7bf a943 104b 6aae ca3f
00000730: 42f5 8193 be84 c23f ce8c aeeb 1047 b83f
00000740: 6765 a9ee a24f b53f 9687 1264 a02e b23f
00000750: 0c92 0f9d 8cbf bcbf 97b4 4ae4 1d56 c3bf
00000760: 0429 ca1b eaaf b7bf 7988 7d35 f5d5 c63f
00000770: 07c0 8c2a e82b d43f 2dd0 b7c5 065a b13f
00000780: 8f0b 9f1d adc4 c7bf db51 5d13 bad0 c13f
00000790: 1405 0079 cc96 92bf 0717 b009 69df c8bf
000007a0: 8a0e d2d0 d67a c2bf cc2f a5d2 1115 2a3f
000007b0: f492 98fc 8c82 c93f cab7 52c5 80b4 a6bf
000007c0: d6bf 50ca de66 c1bf 07a6 ebe4 95ce b2bf
000007d0: e6d6 cd68 f3eb 893f 8fa6 a733 45a9 bdbf
000007e0: 7ba0 8ccd eae7 993f e4f8 95dc dd3a 93bf
000007f0: fdc6 197a acab ce3f 6810 3c45 ab45 c33f
-0.006087496929165929 -0.23900798732991324 -0.016355146101879724 -0.07704593239871074 -0.057404225421075594 -0.03042594207680173 0.1908114735094885 -0.03808697500362337
-0.18418659312768318 -0.1116874195663631 -0.1393328108087261 0.10085606020645607 0.04341171339265972 -0.11491945864545111 0.13592716762466747 -0.014042745668518413
-0.08990005183389198 -0.06429753417059955 -0.04987824555747358 0.0387577012011941 -0.11411308038095253 -0.1273669287041099 -0.24713065711614313 0.06155613361864406
-0.13256924160569386 -0.08961632174427622 -0.007178232651696206 -0.1259415478104625 -0.21121024781243072 0.051206338897296165 -0.14337925094963688 0.13583661926534632
0.07304860930103277 -0.15570766867199856 0.0624467673408465 0.17851384960026928 -0.03278418497373062 0.12793393710759202 -0.014248824328611949 0.08654473845801194
-0.13805632281727498 0.028023887448988937 0.10691881724506823 -0.11231582191761909 0.06516344289973235 0.03660969722154009 0.12592808349585105 -0.07335556103639139
0.02490857841967872 0.043878303623081844 0.06384375450900474 0.011083210592419412 -0.09945971367352005 -0.07938787870245588 -0.0348002414516254 -0.030011196735408256
0.13449404011841212 -0.1719317005971122 -0.057732410266114136 -0.02469377815057379 -0.09849180419689954 -0.012205747962593032 -0.14996807228665693 0.14758792950221908
0.09498380950774013 -0.006651126711920936 0.033605526090529816 -0.002600427855856247 -0.10941224358121134 0.05153405688800599 -0.1243431301299497 0.02598907645551326
0.012826608157944204 0.05458155272321685 -0.07745711909198004 0.06061329524035762 -0.22988154764976385 0.03337106474606619 0.08005128426034172 0.047054626052843385
-0.05516489421389947 -0.007012795837203923 -0.02084273962618975 -0.057047123007071154 -0.15456842697951373 -0.0015106708965400236 -0.07151521490413956 0.004435304944260139
-0.10809952919906278 0.06534069897098416 0.049508597181232884 0.009207982948890529 -0.04737937696258302 0.02286995935934327 -0.06550245731115438 0.016966748632543913
0.03622991440320635 -0.025349908968503976 0.0186494695067287 0.058701049185750476 -0.03529695431419484 0.05271424439089995 -0.06686629442208625 0.012106156211263984
-0.016294174223289253 -0.15934714776032477 0.04634425098006952 -0.08095656471965403 0.04571025555954954 0.028457851120533402 -0.1588126308897257 -0.03929081313851577
-0.04278590908931989 -0.040167595434386597 -0.019060078682832264 0.097649864305724 -0.045203433363970966 -0.21356803774169678 0.16188825240110327 0.027691732392708928
0.18224135440826458 -0.06257018611964892 -0.09509458887487895 0.08992056186076143 0.07335682124721457 -0.12455313902658574 0.046651255794212254 0.059762406037197395
0.258194284548309 -0.2758658944452802 -0.08252297234412037 -0.01437875731037018 -0.06708426283619234 -0.1569372506785544 0.080341217209168 0.0802802727184742
0.09214387262376442 0.20633265094075856 -0.21522196603951424 0.08342317901703816 -0.10247055300011668 0.08440526571335462 -0.07677606963023627 0.14742222929843066
-0.09033410754634519 -0.07863842530960156 -0.0843656011165421 -0.04788268027234842 0.04021271035428398 0.0165426105795746 -0.07837938832513226 -0.012459232156140806
-0.010608784189916442 0.026995570523739593 -0.09587874237643315 -0.0014122374918159315 0.3365072164383096 0.1343611727749068 -0.21740588835714136 0.10983372592225905
0.10002535774863064 -0.061081249968709936 0.13393651288371364 0.011646723932523138 -0.2134465714841395 -0.24136486330219648 -0.11682107142129729 0.22310856340074525
-0.07169962556208206 -0.24666891679990186 -0.012519916554428205 0.029887852449743294 0.14453802183902956 0.10990495314759613 -0.0413516291201239 0.10419755586856613
0.018625832900644287 -0.38828508463023576 -0.0830339675949293 -0.1116519634580675 -0.21624759990389353 -0.03130558938519094 0.021211517242232938 -0.25808550095537797
-0.16402206122579358 -0.30524971584165167 -0.13043531934290614 -0.022309391800374407 -0.10023950892527025 -0.18556994237423816 -0.057569645805431655 -0.000296796262748766
-0.11414922548824243 0.07892582407821543 -0.11217043395618127 -0.07353708624379746 -0.013570638798567845 -0.18237794959518608 -0.09497753127821014 -0.08689757754756168
-0.06499104970980918 0.010708149967592348 0.11819068860488556 0.007047129971067691 -0.10503803584112745 -0.005454492805698654 -0.1147017809510463 0.04949890195299537
0.0003400300933984801 -0.011442225945820733 -0.1131101813074385 0.006594601536616998 -0.2841800847076359 0.11249872302624142 -0.13098219437437617 -0.06261894724201322
0.021469629969307232 -0.11625711560875115 -0.23279145741467683 -0.0914659749280367 -0.16369859119492836 -0.0643211716071696 0.19199858223597932 0.06282312412931698
0.13783356029058358 0.014406445416467184 0.059805843522356045 -0.0962405727781779 -0.18442230385285685 0.20844772973262352 0.14467603876611618 0.09483438257170748
0.08324640585614916 0.07102396433995603 -0.11229780992977839 -0.15106557509480886 -0.09252799204310597 0.17840447532495654 0.3151798644566956 0.06777994467830757
-0.18568958231307106 0.13918233819516854 -0.018153376469858776 -0.19431794140853517 -0.1443737525588527 0.00019899218143348688 0.19929659208096207 -0.04434587868432478
-0.13595185164149254 -0.07346474493865439 0.012657071719995593 -0.11586411009889218 0.025298756404624072 -0.018779245937815228 0.23961406671474342 0.15056362991902295
